classifier.pth (torch, 8296 bytes, 4 tensors)

module.0.weight f4 [50, 20]
-0.31586266 0.0055123004 0.542101 -0.19723023 0.8865177 0.0027269695 -0.42626694 -0.07386235
0.0111181 0.5667559 0.5240959 -0.38516387 -1.1823827 -0.45508653 0.027343178 0.20446673
0.151193 -0.017929278 0.9404536 0.012722703 0.64239436 -0.027796287 -0.61783344 0.5526618
0.93884176 0.030316597 0.4036616 0.3552859 0.02763325 0.46272954 0.45521516 -0.13084309
1.5990415 0.17117774 -0.019188184 -0.09171964 -0.025267169 -0.016295655 -0.67216974 0.1109075
-0.72810453 0.053777933 0.014911439 -0.46633244 -0.58773243 0.020519176 0.5065324 -0.59434235
-0.006777884 -0.2859721 -0.37146163 0.15780564 1.1210805 -0.17927027 -0.064766236 -0.9070073
0.5332086 0.026072772 -0.9457075 -0.7132764 -0.30426747 0.007619543 -0.3748751 -0.19019867
-1.0842212 -0.009362685 -0.9268427 0.018092649 0.012231526 -0.0083109075 -0.3674799 0.17209838
0.89494663 0.21683529 -0.039855264 0.33734214 0.0673451 -0.079475425 -0.4383445 0.5612242
0.23577696 -0.009246074 0.9068231 0.20739305 0.02702729 -0.0089897765 -0.27576587 -0.5006674
0.054337636 -0.26043138 -0.6460287 0.25690383 -1.7154942 0.22951598 0.034326535 0.027572216
0.2175042 -0.03157489 0.55127525 0.47836253 0.17098926 0.049450375 0.031851783 -0.023212623
0.2890664 -0.026475526 -0.9595785 0.40022883 -0.00117873 0.3930883 0.54364324 0.5797469
1.7446098 0.70256686 0.008928721 -0.13645071 -0.2045554 -0.025006568 0.15411003 -0.04585343
-0.264911 0.032043096 -0.19001685 -0.025671309 0.4259137 0.05615658 0.25439653 0.43531388
0.030125441 0.026079215 0.666636 0.20000984 0.94378537 1.0946387 -0.042512376 -0.07065674
0.20741242 -0.05372149 0.25132492 -0.9291799 -0.3854491 0.020323344 -0.5523336 -0.44745725
-0.64521533 -0.026988015 -0.37532637 0.5513364 -0.03444884 -0.061873868 0.7086338 0.538105
-0.12723586 0.983088 -0.049419727 -0.24811612 0.4498633 0.02562103 -0.034192078 -0.049977124
0.31607512 -0.010712274 1.2564645 -0.13368765 -0.13743933 0.020730184 -0.2048957 -0.5139325
-0.014799355 -0.70832866 0.4043648 -0.06043944 0.75309944 0.5530786 0.05751203 0.26464546
0.087463535 0.024767607 -0.23843704 -0.049977392 0.98948234 0.029730266 0.59737957 0.24039851
0.06883058 -0.015041659 -0.4713711 0.3964516 -0.007295374 0.6196125 -0.99103945 0.13494317
0.9153984 -0.28840446 0.037812177 -0.47520262 0.4288014 -0.007432713 0.3545456 1.0451559
-0.39621973 -0.0021453649 1.1835876 -0.1447499 -0.611683 0.04303481 0.4823781 -0.10750142
-0.006890496 0.13732906 0.41812935 0.10838444 -0.7316322 0.6334987 0.027285108 -0.48775557
0.55801636 -0.031275705 0.4483911 -0.015847001 0.24474844 -0.063717164 0.62010944 -0.50164515
-1.1174203 -0.02545208 0.6741565 -0.48606506 -0.021870017 0.06272106 -0.9111298 0.4595674
-0.3391724 -0.54329693 -0.035391092 0.65716547 -0.15146253 0.015249328 0.032367434 0.07337088
0.59281814 0.0067981416 -0.14800389 0.48116097 -1.5944421 0.043939784 -0.14308822 0.16557609
0.009416603 -0.062156778 -0.5001649 -0.015610768 -0.29794982 0.6682285 0.0074381162 -0.15394938
00000000: c0b8 a1be 87a0 b43b 22c7 0a3f b9f6 49be
00000010: d3f2 623f f5b6 323b a93f dabe 2545 97bd
00000020: b128 363c ea16 113f 262b 063f 3334 c5be
00000030: 5158 97bf 1a01 e9be cdfe df3c ba5f 513e
00000040: 56d2 1a3e 6ce0 92bc 91c1 703f e272 503c
00000050: f573 243f 0ab5 e3bc 552a 1ebf 3e7b 0d3f
00000060: ef57 703f 835a f83c bcac ce3e 09e8 b53e
00000070: 205f e23c e3ea ec3e f611 e93e bbfb 05be
00000080: 64ad cc3f 3849 2f3e 8a30 9dbc 82d7 bbbd
00000090: 18fd cebc 777e 85bc 5113 2cbf 7923 e33d
000000a0: 0f65 3abf 4046 5c3d 1c4f 743c 20c3 eebe
000000b0: a275 16bf d517 a83c 1bac 013f d226 18bf
000000c0: 0319 debb ef6a 92be 3830 bebe cd97 213e
000000d0: 917f 8f3f a092 37be 29a4 84bd a131 68bf
000000e0: 5c80 083f 9196 d53c e319 72bf 4899 36bf
000000f0: f2c8 9bbe 5cad f93b a1ef bfbe 71c3 42be
00000100: c3c7 8abf f265 19bc 9045 6dbf 0937 943c
00000110: bd66 483c 792a 08bc 5326 bcbe 8f3a 303e
00000120: 391b 653f 120a 5e3e 463f 23bd 1cb8 ac3e
00000130: 3aec 893d 03c4 a2bd b16e e0be 64ac 0f3f
00000140: 846f 713e d87c 17bc 8f25 683f d85e 543e
00000150: 5668 dd3c db49 13bc 2f31 8dbe bd2b 00bf
00000160: 2491 5e3d 4357 85be 2362 25bf e688 833e
00000170: 5095 dbbf 3d06 6b3e fb99 0c3d 21df e13c
00000180: 6cb9 5e3e ac54 01bd 6020 0d3f efeb f43e
00000190: cf17 2f3e 7a8c 4a3d 0477 023d 6628 bebc
000001a0: 8300 943e 34e3 d8bc f0a6 75bf cbea cc3e
000001b0: 9e7f 9aba df42 c93e 342c 0b3f 4b6a 143f
000001c0: 604f df3f 6cdb 333f c549 123c bcb9 0bbe
000001d0: f976 51be 93da ccbc 05cf 1d3e ced0 3bbd
000001e0: 6aa2 87be 9f3f 033d c793 42be a34c d2bc
000001f0: 5c11 da3e 7104 663d 4340 823e 76e1 de3e
00000200: a1c9 f63c 14a4 d53c a8a8 2a3f 61cf 4c3e
00000210: eb9b 713f 1f1d 8c3f 7521 2ebd 7bb4 90bd
00000220: ec63 543e 110b 5cbd a9ad 803e bcde 6dbf
00000230: 9659 c5be 247d a63c bc65 0dbf 1e19 e5be
00000240: d52c 25bf f815 ddbc c72a c0be 6224 0d3f
00000250: 3a1a 0dbd 746f 7dbd 0669 353f 40c1 093f
00000260: 1e4a 02be a8ab 7b3f 576c 4abd 2712 7ebe
00000270: 7c54 e63e 32e3 d13c fe0c 0cbd d0b4 4cbd
00000280: 99d4 a13e 8982 2fbc d4d3 a03f 6ae5 08be
00000290: e5bc 0cbe 59d2 a93c 2ed0 51be 1591 03bf
000002a0: fe78 72bc 0755 35bf e708 cf3e 598f 77bd
000002b0: 20cb 403f 8f96 0d3f bc91 6b3d 9c7f 873e
000002c0: 1520 b33d 70e5 ca3c d728 74be 18b5 4cbd
000002d0: b74e 7d3f e38c f33c deed 183f 072b 763e
000002e0: 0cf7 8c3d 4a71 76bc 8e57 f1be b4fb ca3e
000002f0: 080e efbb ed9e 1e3f c3b4 7dbf 8b2e 0a3e
00000300: 8d57 6a3f c0a9 93be f1e0 1a3d c24d f3be
00000310: db8b db3e 1e8e f3bb 0087 b53e abc7 853f
00000320: 50dd cabe 4099 0cbb cc7f 973f 5139 14be
00000330: 4297 1cbf 4545 303d 43fa f63e b429 dcbd
00000340: abc9 e1bb fd9f 0c3e 0d15 d63e a9f8 dd3d
00000350: 3f4c 3bbf f92c 223f 0585 df3c 19bb f9be
00000360: 29da 0e3f f41a 00bd 8593 e53e 92d1 81bc
00000370: 569f 7a3e 257e 82bd 7ebf 1e3f d16b 00bf
00000380: a107 8fbf e180 d0bc 8595 2c3f 85dd f8be
00000390: c028 b3bc e673 803d cd3f 69bf 6b4c eb3e
000003a0: 01a8 adbe 8215 0bbf 40f6 10bd ff3b 283f
000003b0: fe18 1bbe 51d8 793c b793 043d 7943 963d
000003c0: eec2 173f f2c2 de3b 558e 17be bb5a f63e
000003d0: ae16 ccbf 34fa 333d b885 12be c78c 293e
000003e0: 1848 1a3c 1b98 7ebd cf0a 00bf 4fc4 7fbc
000003f0: e18c 98be 0611 2b3f 71bb f33b e8a4 1dbe

module.0.bias f4 [50]
0.90324736 -0.33003196 -0.06286125 0.68435293 0.73670584 0.15919022 -0.6644142 1.1815434
0.47155625 -0.38130736 1.319361 -0.70425904 0.53460073 0.7812545 0.38776645 0.5895284
0.50218904 0.59511685 1.2897756 -0.1925685 -0.06114584 0.6562683 0.4236869 0.552088
0.070820466 1.1964504 0.19253814 -0.42149773 0.80074924 1.4736577 1.1297687 -0.18991624
0.62055516 0.38859805 0.45267612 0.58732736 0.39613983 0.099876 -0.6657652 1.38728
-0.4641807 0.8202934 -0.2638753 0.14405674 -0.14940892 0.5498321 1.1970341 0.35131115
0.2453399 0.3240237
00000000: 383b 673f f3f9 a8be 66bd 80bd c131 2f3f
00000010: c198 3c3f c302 233e 0d17 2abf d03c 973f
00000020: d26f f13e b83a c3be d2e0 a83f 524a 34bf
00000030: 98db 083f 4b00 483f 5389 c63e 55eb 163f
00000040: 768f 003f 9459 183f 5e17 a53f ad30 45be
00000050: 0f74 7abd 3301 283f 7ded d83e a455 0d3f
00000060: 520a 913d 4925 993f b828 453e 8dce d7be
00000070: e7fd 4c3f d1a0 bc3f 439c 903f 6779 42be
00000080: b4dc 1e3f 53f6 c63e 2ac5 e73e 165b 163f
00000090: d7d2 ca3e ca8b cc3d 976f 2abf 6492 b13f
000000a0: 18a9 edbe c0fe 513f aa1a 87be 9c83 133e
000000b0: a7fe 18be ccc1 0c3f 6a38 993f 0edf b33e
000000c0: 623a 7b3e 6fe6 a53e

module.2.weight f4 [10, 50]
-1.0947536 -0.6342859 -0.5468542 0.6776522 0.24884383 -2.0525331 -0.29291704 0.49126577
-0.7087923 -0.24786104 0.5262639 0.3168774 0.8600977 0.6233423 0.34186104 -0.23160085
0.36384994 -0.8195104 -0.74190766 0.25375625 -0.40365255 0.995664 -0.45245948 0.30198696
-0.7260837 0.8698216 -0.4796321 0.81415385 -1.1291648 0.3069619 -0.06740365 0.5248117
0.23745985 -0.05697816 -1.0305824 -1.4043667 -0.9142844 -0.04776003 0.31631252 0.977465
-0.046963554 -0.4908834 -0.4556911 -0.074830934 -0.8982325 -0.9310301 -0.115411274 -0.30191237
-0.29933918 -1.1333104 0.77960205 0.7730261 1.1399237 -0.04775873 0.6013044 0.09200979
0.6934674 0.49208006 -0.070839934 0.1868597 -1.1873243 0.21143673 -0.3475125 -0.11158741
0.58226866 0.92974365 -0.76447135 -1.0576211 -0.3624505 0.43884084 0.9580316 0.13472338
-0.4152598 0.42706725 -0.44182897 -0.500426 -1.4054738 -0.060913384 -0.25647253 -1.2770991
-1.1750886 -0.5625269 -0.7641328 0.24554805 -1.3658731 0.35555187 -0.3137635 -0.9946038
0.4579594 -0.31774473 0.76216733 -0.36531165 1.4462054 0.6604182 -0.5879252 -0.6817915
-0.104344636 0.1966936 0.5235429 0.412307 -0.4416755 0.92307216 -0.5008383 -0.14206247
-0.663324 0.34487367 -0.14577614 0.20021833 0.4963131 -0.47182637 -0.51728207 -0.28547665
0.17628674 -1.8000443 -0.3074816 -0.5251299 0.40986323 -0.43605804 -0.60062844 0.78216296
0.77700436 -0.59757745 -0.5472112 0.69729394 1.1529702 0.7931497 -0.0380025 -0.18077575
-0.18637562 -0.19975515 -1.3334268 -0.32638806 0.32772318 0.4957991 -0.38868463 -0.15929146
0.1761611 0.02204079 0.25962412 0.32406902 0.079759315 0.70604014 -0.41986534 -0.9436131
-0.9810352 0.011327212 0.8915008 0.6310586 -0.10037491 0.32355827 0.09241142 -0.63079846
0.36165196 -0.42996657 -1.0556083 -0.18333332 -0.023708746 0.67922723 0.018695889 -0.843589
-1.1688944 0.2793634 -0.71648586 -0.3327416 -0.3620045 -0.14411135 0.38677913 1.0195245
0.24202321 0.74856925 0.18816622 -0.63825107 -0.689805 0.3079045 0.20885766 -0.25334415
0.36417645 -0.8533365 -0.36257422 0.5347155 0.30913877 -0.18133016 -0.023385426 -0.34042203
0.95588577 0.36309567 -0.52316916 -0.299396 -0.87090623 0.32010862 -0.9311814 0.053810347
-0.4707028 -0.5626908 0.27684096 -0.11112927 0.2037973 -0.34940016 0.05472613 -0.5743477
0.010719965 0.04141302 0.45059824 -0.0077391034 0.67576045 -0.47495124 -0.16485988 -0.26278964
0.6153561 0.29757586 0.09398794 -1.3514115 0.1505252 -0.014026436 -0.67862266 0.87939626
-0.5409022 -0.3256372 -0.014287145 -0.79852444 -0.63393676 -0.11862655 0.36794853 0.15823023
-0.8939277 0.6067204 0.26200587 0.66768336 0.5268416 -0.23382656 0.24602441 -0.8792623
-1.463012 -0.22295788 -0.102092214 -0.2810104 -0.40275452 -0.58774745 0.55045646 -1.9957736
0.248696 -0.054719627 0.061089087 0.2152012 0.6973506 0.5408268 -1.0255309 -0.5962905
0.36132646 0.1262454 -0.23246878 -0.0038685591 0.17304188 -0.4696899 -0.8819535 -0.1451821
00000000: e320 8cbf 9060 22bf a3fe 0bbf 9d7a 2d3f
00000010: ebd0 7e3e b45c 03c0 39f9 95be 3087 fb3e
00000020: 6a73 35bf 49cf 7dbe 3bb9 063f c13d a23e
00000030: 5d2f 5c3f 5c93 1f3f 6908 af3e c628 6dbe
00000040: 8a4a ba3e 6fcb 51bf a9ed 3dbf 57ec 813e
00000050: 8cab cebe d6e3 7e3f c5a8 e7be 099e 9a3e
00000060: 9fe0 39bf a1ac 5e3f 5792 f5be 636c 503f
00000070: 7988 90bf 1c2a 9d3e ed0a 8abd 0f5a 063f
00000080: ad28 733e ee61 69bd 20ea 83bf 4ac2 b3bf
00000090: 8b0e 6abf 05a0 43bd b7f3 a13e 253b 7a3f
000000a0: db5c 40bd 1255 fbbe 5850 e9be f640 99bd
000000b0: 91f2 65bf fd57 6ebf bf5c ecbd 4294 9abe
000000c0: fc42 99be 5110 91bf 0094 473f 0ae5 453f
000000d0: 05e9 913f a89e 43bd 16ef 193f a16f bc3d
000000e0: 1487 313f ebf1 fb3e 8714 91bd 2658 3f3e
000000f0: 3efa 97bf df82 583e 29ed b1be f187 e4bd
00000100: 8f0f 153f ae03 6e3f 65b4 43bf 2160 87bf
00000110: 1d93 b9be bfaf e03e 8f41 753f edf4 093e
00000120: ef9c d4be 8fa8 da3e 6837 e2be eb1b 00bf
00000130: 91e6 b3bf 5080 79bd 5e50 83be fc77 a3bf
00000140: 4e69 96bf c301 10bf 359e 43bf f370 7b3e
00000150: eed4 aebf e50a b63e 9ca5 a0be 5b9e 7ebf
00000160: a879 ea3e 70af a2be 661d 433f 210a bbbe
00000170: 421d b93f 2b11 293f 4482 16bf e389 2ebf
00000180: a4b2 d5bd 0c6a 493e e806 063f e719 d33e
00000190: 4b23 e2be 754e 6c3f f036 00bf d378 11be
000001a0: 9acf 29bf 4893 b03e 5746 15be 0906 4d3e
000001b0: c01c fe3e 3a93 f1be 996c 04bf ff29 92be
000001c0: 8384 343e da67 e6bf 3a6e 9dbe ea6e 06bf
000001d0: 98d9 d13e 0043 dfbe c9c2 19bf d53b 483f
000001e0: c2e9 463f d6fa 18bf 0916 0cbf db81 323f
000001f0: 8794 933f dc0b 4b3f 82a8 1bbd 471d 39be
00000200: 40d9 3ebe 9d8c 4cbe bbad aabf 561c a7be
00000210: 55cb a73e 61d9 fd3e ac01 c7be 4d1d 23be
00000220: 9363 343e e38e b43c 74ed 843e 60ec a53e
00000230: da58 a33d 0cbf 343f 97f8 d6be a190 71bf
00000240: 1f25 7bbf c595 393c 6539 643f 0e8d 213f
00000250: 5c91 cdbd 6ea9 a53e 3342 bd3d 027c 21bf
00000260: 722a b93e 9424 dcbe 2c1e 87bf bbbb 3bbe
00000270: d838 c2bc d6e1 2d3f 1f28 993c 73f5 57bf
00000280: 559e 95bf b808 8f3e 9e6b 37bf 1b5d aabe
00000290: a758 b9be ed91 13be ea07 c63e c77f 823f
000002a0: efd4 773e 3ca2 3f3f a5ae 403e 6c64 23bf
000002b0: 0f97 30bf a9a5 9d3e c8de 553e 53b6 81be
000002c0: 5675 ba3e 4374 5abf 54a3 b9be 1de3 083f
000002d0: 7047 9e3e 9dae 39be cb92 bfbc cc4b aebe
000002e0: eeb4 743f ade7 b93e 6aee 05bf 6f4a 99be
000002f0: b6f3 5ebf 47e5 a33e e761 6ebf 3d68 5c3d
00000300: f5ff f0be 810c 10bf 19be 8d3e be97 e3bd
00000310: 3db0 503e 94e4 b2be 8228 603d 7308 13bf
00000320: cba2 2f3c b3a0 293d d0b4 e63e 4e98 fdbb
00000330: a3fe 2c3f cf2c f3be 07d1 28be 5d8c 86be
00000340: fa87 1d3f dd5b 983e c07c c03d 0dfb acbf
00000350: 4723 1a3e 23cf 65bc 37ba 2dbf 1d20 613f
00000360: 9178 0abf ebb9 a6be a114 6abc 196c 4cbf
00000370: ae49 22bf 7af2 f2bd c063 bc3e 1b07 223e
00000380: 72d8 64bf 0752 1b3f a225 863e 4ced 2a3f
00000390: 17df 063f 3b70 6fbe d3ed 7b3e 5617 61bf
000003a0: fa43 bbbf 124f 64be b915 d1bd 98e0 8fbe
000003b0: d735 cebe 9e76 16bf b7ea 0c3f 8275 ffbf
000003c0: 2aaa 7e3e b021 60bd 8d38 7a3d b45d 5c3e
000003d0: 9285 323f a073 0a3f 9944 83bf 7fa6 18bf
000003e0: c8ff b83e 7946 013e 4c0c 6ebe a787 7dbb
000003f0: e431 313e 327b f0be b4c7 61bf 9eaa 14be

module.2.bias f4 [10]
-0.27111483 -1.0268446 0.107298486 0.5041488 -0.032310087 -0.7385362 -0.26603684 -0.6317483
0.9228056 0.38358688
00000000: 90cf 8abe a56f 83bf 4fbf db3d e50f 013f
00000010: 9557 04bd b510 3dbf fb35 88be 42ba 21bf
00000020: fd3c 6c3f 8065 c43e
