vae.pth (torch, 310344 bytes, 17 tensors)

encoder.conv1.weight f4 [16, 1, 3, 3]
00000000: 28df acbd 5614 85bd 712c 373e 1e4d 39be
00000010: 7266 9fbd 0ef6 8d3d a6f9 d9c0 a2c2 43be
00000020: 41fe e1bc d60d 6c3d d87b e53d 88e0 37bd
00000030: 0fba 5e3d f578 063d 9734 e1bd f3b3 37bb
00000040: 6000 44bd 514a ccbd 7325 14be 529e dcbd
00000050: 5870 c0bd baf0 5e3c a1b4 edbc 3593 d83c
00000060: 6ea0 243e d4a7 713d 3c16 043d 72c0 35bd
00000070: 78cc 143e da49 c93d 2fc5 31be ea3a 963d
00000080: a5a7 25be b8bf b3bf c23e 83be 227f 0bbf
00000090: eeef cfbd 7aa6 5b3c bcdb 2cbe f458 b4be
000000a0: 9ad4 a53e 3527 75be 18a1 3ebd a60f 553e
000000b0: 27ea 07be cb82 eb3d fe0a 463d eb68 093e
000000c0: 45f0 093e 3cfc e73d bdc0 d73d af03 033e
000000d0: 846c 4f3c 3ff6 f53d e7e7 2f3d 011c 653d
000000e0: c025 ee3d ec90 32b9 4b26 8d3c dfd2 183d
000000f0: 7942 f9bd 3b2b cebd ce3b 07be a5e1 88bd
00000100: bd3d 4e3d cefc 573d 4acd f3bd 3cb4 8f3b
00000110: 5314 0d3e 1444 0bbe d438 0abd efc3 673d
00000120: 515b 37bc e53d da3b 65e2 09bc 0c3f faba
00000130: 6069 aa3c c2c4 2a3c 6878 b23c ce19 163e
00000140: d2d3 9c3d 5344 72c0 fea7 5ebd 4342 a5bd
00000150: 8d6b dcbd 0577 83bd 9adb 19bc 1eb7 b8bd
00000160: da5d edbd 9d3a 633e 6971 573e 3180 54bd
00000170: d887 7fbd 6d8e e8bc f7ca 73bd bb4d 13be
00000180: 488b 6dbd 68d9 28bd 9778 fdc0 ec10 fdbf
00000190: 18f6 4ebe 7900 c4bf e358 04bf 81d3 3f3e
000001a0: 5b54 c0be 04f8 9b3c a3f3 7a3e 6837 b8bc
000001b0: c93f db3a ce21 a3bd 350a fabd ea90 ed3b
000001c0: 5522 45bc 91ff 1bbe c617 553e a658 4a3c
000001d0: 6113 27be f7b8 473e 4205 c43d 86aa 713e
000001e0: 24fd 563e cdea 2d3d 6f16 2f3e 883b 543e
000001f0: d4d2 693d c3cb 4d3e cbbf 96bd bf41 06bd
00000200: 8342 b1bd c164 0cbe 179a c93b 70a9 d3bd
00000210: 5d5c 68bd 68a9 63bd 976d 79bd 6370 543e
00000220: 1f3c 1cbb c98f 57bd ab14 37bd 708f 14be
00000230: 939a 643c 5b33 50bd 026a c2bc 29d0 313e
-0.08441001 -0.064980194 0.17888047 -0.18095824 -0.07783212 0.06931697 -6.8117247 -0.19117215
-0.027587058 0.057630382 0.11205262 -0.044891864 0.054376658 0.032830197 -0.10996359 -0.0028030842
-0.04785192 -0.09975112 -0.1446741 -0.10772385 -0.09396428 0.013607198 -0.029016795 0.026437381
0.16076824 0.058997944 0.032247767 -0.044372983 0.14531124 0.09828539 -0.17360376 0.07335456
-0.16177233 -1.4042883 -0.25633818 -0.54490864 -0.10153185 0.01340639 -0.16880697 -0.35224116
0.32388765 -0.23940738 -0.04654035 0.2080675 -0.13272916 0.11499556 0.048350327 0.1341893
0.13470562 0.11327407 0.10534809 0.12794374 0.0126601495 0.12009858 0.04294577 0.05593491
0.11628294 -0.0001702939 0.017230174 0.037310477 -0.12170882 -0.10066839 -0.13206407 -0.06683663
0.050351847 0.052731328 -0.1190439 0.0043854993 0.13777284 -0.13600188 -0.0337456 0.05658334
-0.011191205 0.0066602104 -0.008415793 -0.0019092276 0.0208022 0.010422887 0.02178593 0.14658281
0.07657589 -3.7854202 -0.05435943 -0.08069279 -0.10762701 -0.064191855 -0.009390736 -0.09019302
-0.115901664 0.22190328 0.21039356 -0.051880065 -0.06238541 -0.028388226 -0.059519734 -0.1438512
-0.057994157 -0.04122296 -7.9209704 -1.9770789 -0.20211065 -1.5312644 -0.5169813 0.18733026
-0.37564358 0.019039162 0.24507003 -0.022487357 0.0016727383 -0.07965432 -0.12208978 0.007249941
-0.012032111 -0.1523421 0.2080985 0.012350237 -0.16315986 0.19504152 0.09571315 0.23600206
0.20995003 0.04246025 0.17098401 0.20725834 0.057085827 0.2009726 -0.073608 -0.032777544
-0.08655264 -0.1371031 0.006152402 -0.10335052 -0.05672871 -0.05558148 -0.06089553 0.20745997
-0.0023839546 -0.05262736 -0.044697445 -0.14507842 0.013952869 -0.050830226 -0.02373219 0.17364563

encoder.conv1.bias f4 [16]
00000000: 534a f63b b0b3 a03c c51e 67bb e1d4 b43b
00000010: 01b6 12bc 21ac 493a 03f8 ce3b d48c 1e3a
00000020: 1ef7 59ba 606e 5d3c 8674 c9ba abe3 98ba
00000030: 891f 05b9 dc37 08bf c207 0f3e e8c5 b4bd
0.0075161844 0.019616932 -0.0035266143 0.005518541 -0.008954526 0.0007693191 0.0063161864 0.00060482067
-0.00083147164 0.013515085 -0.001536981 -0.001166453 -0.00012695616 -0.53210235 0.13967803 -0.0882681

encoder.conv2.weight f4 [8, 16, 3, 3]
00000000: 9049 f93b d6bc 08be 30a2 fbbc f9dd 71bd
00000010: e7b7 fdbc fe5a 51bd 83fa d53c b6d3 68bd
00000020: 0ad9 a7bd d9f3 10bc fbc1 a73c b79b ccbc
00000030: 5e6e f1bc 2986 41b9 9bc2 513a 4b78 d0bd
00000040: b279 e3bd 1568 36bc fbea a9bd c378 f3bd
00000050: 80aa b7bd 2569 d9bd 1d41 a43b e7db b5bd
00000060: 8e01 d83c 1f79 c0bd f396 1dbd 5112 b4bd
00000070: 2145 0cbc eb88 a9bc 4c71 22bd a8ab 80bd
00000080: e751 9cbd 9519 ce3c e6d5 07be 9b55 cabd
00000090: 664c e23c 7559 aebd 738d c1bd 0e9b 41bd
000000a0: 1c69 a0bd 44cb e4bc ce0b 043d 0f9d 8f3d
000000b0: 2343 ddbc 654b 9cba c72a 58bd 7b2d 09be
000000c0: 3e26 aabd 40f2 183d 488f a33c f59d 76bd
000000d0: b907 0cbd 87d8 d33a 7d2d 403d 05db c5bd
000000e0: 9b1e 843b 79c2 00bd ffce fd3c bcdb e03d
000000f0: 8a30 a2bd e477 52bc a598 12bc db65 833c
00000100: e6aa 593d 3700 52bb 6a0e 95bc a5a7 c1bd
00000110: f280 11bd 5ff8 b9bd 3a3b 81bd 457d f5bd
00000120: 1b39 59bd cd15 f2bd 8026 87bb e974 ec3c
00000130: 85ba 77bd 54ae ecbd 89da 7cbd a2d6 42bd
00000140: 21ed d4bd 26ef e2bb a33b d53d df7c ccbd
00000150: 840a 62bd 1018 9a3c 8bde 42bc 8d58 b3bd
00000160: 6766 29bd 885f 2dbd d55d a03d d2f9 72bd
00000170: 2a7a 1f3d ed28 7bbd b7dc 0a3d f555 c5bd
00000180: 185b e43c b71e c6bb 3fa8 8c3c 93c3 2f3d
00000190: 7479 b6bd 23b9 bdbd a727 27bd a34a 1bbc
000001a0: 538d d4bd 4bc7 15bc 7691 e0bd 8e16 81bd
000001b0: 719a a23d 535b 34bd 814a e7bc b248 13bc
000001c0: 1bdc 86bd ff30 023d bd2d cebd ea06 99bd
000001d0: 2431 e1bd 5373 0ebc 243a ddbd d9ee 723d
000001e0: a989 28bc 5a12 c7bd 70ed 80bd b5c6 c1ba
000001f0: f40a 563c a353 0b3d 1d1b abbd 2ef3 e5bd
00000200: 302a 65bd efa7 edbb ca2f 74bc 7a6b 4abd
00000210: d54e ddbd 7668 a8bd 692d 39bb e663 013c
00000220: 543a bdbd 2480 07bd 17b0 0c3d adf0 e73c
00000230: 4861 0bbe f453 ddbd 0f0d 00be 44cf 63bd
00000240: ce38 5f3d cb98 303e 4fe7 ac3e 7615 aebd
00000250: 51fc 1a3c 3584 4b3e 180a 63bc 3273 dcbd
00000260: 4e3d 663e cf4f 03bd d44a daba 662f f6bd
00000270: 37a7 0cbe 36ed 353c ee8a 5abd bcab 9abd
00000280: abfb bc3d d304 e2bd 6139 fbbd 46a0 58bd
00000290: 7975 46be 1e51 06be 6c03 503d 7093 22be
000002a0: 1e8b 073e 032d 013e edd7 37be 9451 203d
000002b0: 0321 d63d c534 d8be e6ae 663d eb38 20be
000002c0: 7925 27bf 2568 74bd 27dd 43be 3914 f0be
000002d0: 73c8 863d 83c5 da3c 3deb 253e 0021 96bc
000002e0: e279 c43b fe20 f73d 1f6b 6bb9 d62a 193e
000002f0: 41c9 193e ef4a bbbb dea9 823e 7015 383e
00000300: c507 85be 4828 d23e b8d8 163e 7f41 c3bd
00000310: 5c7e 163f a766 413e 7d8c dc3d c61c cb3d
00000320: 0540 84bc fbeb 8e3d 5041 3b3e 19a4 51be
00000330: 8da4 08bd 6ce5 11be 824e 87bd f127 47bc
00000340: 626b a83d fc20 9b3e 1443 233e c07f 113c
00000350: 9bf2 a13e 305a 6d3d a021 ac3d 05cf 633e
00000360: a7a4 c2bd aca0 febc b325 853e ff2a 56be
00000370: da39 0f3e 14bd a33e b394 99bd b738 26bd
00000380: 9746 443e c6da 66bd 523f 843d 1364 2e3d
00000390: 0b6d 5f3d d542 813d e7fb 2b3e ef0c 5d3d
000003a0: 03d3 8b3e a168 ad3e e954 123e b5cc a83c
000003b0: afa7 d2bd ce22 e8bd c264 f33d c232 09be
000003c0: a1d5 4bbe 9167 293e a6f9 02bd b46e 39be
000003d0: 5fef 2abe ba24 f6be 39e1 a4bd 3833 e7be
000003e0: 480a 38bf 5985 b0bd 88f2 a9be eba7 01bf
000003f0: 5022 5c3d a5a7 273e 5d8e 223e 5f29 32be
0.0076076463 -0.13353285 -0.030716985 -0.05904958 -0.03097148 -0.051112168 0.02612043 -0.05684253
-0.08195694 -0.0088472 0.02047824 -0.024976594 -0.029471572 -0.00018455893 0.0008001716 -0.10179194
-0.11107196 -0.0111332135 -0.08296772 -0.11888268 -0.08968067 -0.10615758 0.005012645 -0.08879834
0.026367929 -0.09398102 -0.038474035 -0.08792556 -0.0085614035 -0.02069517 -0.03965883 -0.06282741
-0.07632809 0.025158683 -0.1326519 -0.09879609 0.02762432 -0.08513156 -0.094508074 -0.047267012
-0.07832548 -0.027928956 0.03223782 0.070123784 -0.027009552 -0.0011924325 -0.05277517 -0.13396256
-0.08308075 0.037340403 0.019965783 -0.060209233 -0.034187052 0.0016162553 0.04691838 -0.09660915
0.004031969 -0.031435464 0.030982492 0.10979411 -0.07919414 -0.012845967 -0.008947526 0.01603978
0.053141497 -0.0032043585 -0.01819535 -0.09455804 -0.035523362 -0.09080576 -0.06310125 -0.11986784
-0.053032976 -0.118205644 -0.0041244626 0.02886434 -0.060480613 -0.11556688 -0.06173185 -0.04756797
-0.10396791 -0.0069254814 0.104117654 -0.09984755 -0.05518581 0.018810302 -0.011893879 -0.08757124
-0.041357424 -0.042327434 0.07830397 -0.05932028 0.038934864 -0.061318327 0.033901896 -0.09635536
0.027875468 -0.006046142 0.01717007 0.042911123 -0.08909884 -0.09263828 -0.0408093 -0.009478244
-0.10378518 -0.009141753 -0.109652445 -0.0630313 0.079396136 -0.044032406 -0.028233768 -0.0089895
-0.065849505 0.031785008 -0.10067318 -0.07472022 -0.10995701 -0.008694488 -0.10802105 0.059309814
-0.010286727 -0.09720297 -0.062952876 -0.0014783951 0.013064135 0.03401531 -0.08354781 -0.112280235
-0.055948436 -0.0072526853 -0.014903972 -0.049418904 -0.10806052 -0.08223049 -0.0028255826 0.007897353
-0.09239641 -0.03308119 0.03434762 0.028313005 -0.13611329 -0.108070284 -0.12504981 -0.055617586
0.054497533 0.17245786 0.33770224 -0.08500187 0.009459571 0.19874652 -0.013857387 -0.10764159
0.22484323 -0.032058533 -0.0016654381 -0.12020759 -0.13735662 0.011103919 -0.05335515 -0.07552287
0.09227689 -0.110360764 -0.122668035 -0.052887224 -0.1938075 -0.13116881 0.050784513 -0.15876555
0.13236663 0.12614827 -0.17953463 0.0391403 0.10455515 -0.4222776 0.05631914 -0.15646712
-0.65291554 -0.059669632 -0.19127332 -0.4689043 0.065812014 0.026705509 0.16203018 -0.018326283
0.005995975 0.1206684 -0.00022451252 0.14957747 0.15018179 -0.00571572 0.25520223 0.17976928
-0.2598249 0.41046357 0.14731109 -0.09533977 0.5878656 0.18886815 0.107689835 0.099175975
-0.016143808 0.069786035 0.18286633 -0.20472755 -0.033360053 -0.14247674 -0.06606771 -0.012155519
0.08223607 0.30298603 0.15943557 0.008880556 0.31630406 0.057947338 0.08404851 0.2224694
-0.09504061 -0.031082474 0.26005325 -0.20914839 0.13986912 0.31980193 -0.07499065 -0.04058143
0.19167553 -0.056360982 0.0645739 0.042575907 0.05454735 0.06311575 0.16795312 0.053967413
0.27309427 0.33868888 0.14290203 0.020605424 -0.10285889 -0.113347635 0.118844524 -0.13398269
-0.19905712 0.16543414 -0.031976365 -0.18108636 -0.16692875 -0.48074895 -0.0805077 -0.45156264
-0.7189069 -0.08619184 -0.3319285 -0.5064685 0.05374366 0.16372545 0.1587462 -0.17398594

encoder.conv2.bias f4 [8]
00000000: b368 37bd ff6c 99bd eda8 d83d 60ce 6e3e
00000010: ab43 1bbd 81a8 a83e 3eca 9fbd a65b 513e
-0.044777583 -0.074914925 0.10579095 0.23320913 -0.03790633 0.32941058 -0.078022465 0.20445117

encoder.conv3.weight f4 [10, 8, 7, 7]
00000000: 2cf2 47bd 9a0b 18bc d8b7 973b 99b9 d3bc
00000010: 49fb 86b6 3d00 80bd 776c 0b3d 530d a7bc
00000020: 5f99 61bd 27a5 573d 2ec9 8aba 0937 5bbc
00000030: 1962 7fbb 593c 33bd cf0d 143d 9014 81bd
00000040: ab3c c0bc e9f3 44bc 35bf 49bd 3739 e93c
00000050: 72cc 4e3d bba0 15bd adbf a7bd 89ed 183d
00000060: c77d 67bd 947f 3e3c 4d76 793d 2cee 9fbc
00000070: 51b5 993c 2d4b c1ba e3cd 073d ab89 f9bc
00000080: b2b8 a93d 81ba 7fbc 7620 9e3c 9eec 463a
00000090: 34c1 2fbb a707 963d eb0c 0b3d 41cc a53b
000000a0: e9e0 b23c cec3 3bbb 2368 213c 3c9e 873c
000000b0: c16e 7abc 2bcd 893c d4ab f73c 9113 163d
000000c0: 6d4d 06bc 9651 acbe 3ee5 fe3d 7317 103e
000000d0: 6067 1e3e 9634 74be 06eb 8fbe e5f0 f8be
000000e0: 4444 503d 7bc7 d6be 8ae0 a13e 955d 96bd
000000f0: ddb9 5dbe 9779 06bd d1a7 9a3f fec0 883e
00000100: ec8d 41bc 3c49 183e f68e 803c b74c 40bf
00000110: ac02 86bf bf6f 0fbf f12e 623b ff43 113d
00000120: 6f0b d2bc c6e3 70be 4ac0 a4be 218f 0a3f
00000130: f7ff 403f 00b4 8a3c 748f abbd 8d0b 703e
00000140: d38f fa3c 64e0 003f af5d 523e e2e8 973e
00000150: 7cef 81be a048 50bd fb7a 21be 92f6 21bd
00000160: aa91 c9be c2e2 bebe 75fd 38bf 3c09 543e
00000170: d08c 63be 232d c63d f745 883e e9cd 9b3e
00000180: e8d1 34bf b47b 3e40 bfcf bb3b 6290 a2be
00000190: f691 893e 3c51 d63e 6583 a3bd 99e6 093d
000001a0: 7477 14bf f2cc 4fbf 2312 bf3c 9b0d bdbe
000001b0: f127 803c 5694 683e 2e1d 3f3e 5bb0 f7bd
000001c0: aeee 2e3e 2356 593f d49f 833f 4c05 f7bc
000001d0: 3412 863e 05f5 9fbe 807d 663e ea9e 03be
000001e0: ab23 243f 8bcf f4be 3062 87be fc85 21bf
000001f0: 1c70 093e 8230 b8be 1be3 19bf 1d73 143d
00000200: 0740 a5be 9f26 d83d de05 9e3e 11a2 cf3d
00000210: a711 663e 34fa e23e bd67 21be d3b4 243e
00000220: b576 613e a8fe 7e39 efd0 e1bd 9bb2 4e3e
00000230: 7d72 8abf 1fb8 a43e 8ee5 853e bc02 2f3d
00000240: 8c35 39bc 3546 9fbd c326 f13e adeb 7c3c
00000250: a519 09be cb93 4cbe 8365 cdbd 6606 ab3c
00000260: 5a63 dfbe e3ac e63e 6c8d c4bd 3454 3cbe
00000270: c547 25be babf e43d f56e 083e 4da8 063c
00000280: cb6f 743d 3178 2fbf 1937 81be fd30 813e
00000290: 22be 2dbc 02db 2d3e c909 bc3d 71e6 3ebe
000002a0: f677 a0be 8833 99ba fec5 9cbe db92 593f
000002b0: 1756 303e 3c93 01bf a3cc a23e fd55 423f
000002c0: d9fe 3c3f 25b8 293e 6679 86be da0c 323e
000002d0: 9c9c 70bd f908 57be 8047 fd3b 7a0b 0ebf
000002e0: 7d25 24be 3329 b93e 0ffe 7cbd 6382 f03c
000002f0: ad3b 523d 7a22 4f3f 56d4 333e b32d 18bd
00000300: 94f4 5fbe b6b6 f53d 470c 81bd 2a44 03bf
00000310: 221f f5bc 7dd1 d63c 2113 f8bc fcae e63b
00000320: 42f9 1cbc bef1 97ba 4acc e13c 61e4 d53c
00000330: 5fec ab3c 39d7 41bd b33a de3c 85fc 413d
00000340: d5f4 503c 807c a33c ef14 fe3b d748 4ebd
00000350: 8010 3dbc d1e6 e3bc a1a2 893c f170 f2bc
00000360: fc1e 39bd 3319 313d 3fa1 d3bc 23ff 9c3c
00000370: d896 c2bc bfbf 6e3c 261b 943c d633 12bd
00000380: 3084 283d ae7d 543d 7392 f2bc ea98 4e3c
00000390: 2cf7 3d3c a3cf c03c ecc4 51bb 42db b3bb
000003a0: 6147 a2bc a69f 6d3d d82d 81bb 8e86 a83c
000003b0: e275 56bd e83c 3cbd 3d12 a73c ffa6 c93c
000003c0: 2629 2e3c 4e6b c5bc 929f a2bb 4870 15bd
000003d0: ad4e 483b 7d8a 43be 0b2c d0be e480 34be
000003e0: b9e0 bdbe d2c3 7ebe 5171 a2bd 2838 3e3e
000003f0: 2130 93be b54b 1ebc 12d1 313e 6e76 f2be
-0.048814937 -0.00928011 0.00463007 -0.025845336 -4.0227646e-06 -0.062500454 0.034038987 -0.020392096
-0.055077907 0.052647736 -0.0010588521 -0.013379821 -0.0038968383 -0.043758724 0.03614598 -0.0630275
-0.023466429 -0.012021043 -0.049254615 0.028469665 0.050487943 -0.036530238 -0.08190856 0.037335906
-0.056516435 0.011627097 0.060903836 -0.019522749 0.018763216 -0.0014747136 0.033155333 -0.030461153
0.08287181 -0.015608431 0.019302588 0.00075883593 -0.002681804 0.07325678 0.033947866 0.0050597494
0.021835761 -0.0028650644 0.009851488 0.016554944 -0.015285195 0.016821465 0.030233301 0.036639754
-0.008197171 -0.33655995 0.12446068 0.14071445 0.15469122 -0.23848185 -0.28108996 -0.48621288
0.050846353 -0.41949067 0.31616622 -0.07342068 -0.21652932 -0.0328308 1.2082464 0.2670974
-0.011813622 0.14871687 0.01569317 -0.7511706 -1.0469565 -0.56029886 0.0034512843 0.035465237
-0.025640218 -0.23524389 -0.32177955 0.5412465 0.7539057 0.016931534 -0.08376971 0.23441906
0.030586159 0.5034239 0.2054355 0.29669863 -0.25378025 -0.05085051 -0.1576957 -0.03954179
-0.39368945 -0.37282377 -0.72261745 0.20706648 -0.22221684 0.09676578 0.2661588 0.30430534
-0.7063279 2.9763002 0.0057315524 -0.3175078 0.26869172 0.41858852 -0.07984046 0.03366718
-0.5799477 -0.81172097 0.023324078 -0.36924443 0.015644046 0.22712836 0.18663475 -0.12094184
0.17083237 0.8489706 1.0283151 -0.030153893 0.26185763 -0.31241623 0.22508812 -0.1285359
0.64116925 -0.47814593 -0.264421 -0.6309507 0.13421673 -0.3597451 -0.6011216 0.036242593
-0.3227541 0.105542414 0.3086385 0.101383336 0.22467671 0.44331515 -0.1576223 0.16084604
0.2201794 0.00024318194 -0.11026179 0.2018532 -1.0816189 0.32171723 0.261517 0.042727217
-0.0113042705 -0.07777063 0.47099885 0.015437049 -0.13388689 -0.19978254 -0.100291274 0.020877074
-0.43630487 0.45053777 -0.095972866 -0.18391496 -0.16140659 0.111693814 0.13323577 0.008218837
0.059676927 -0.6854277 -0.2523735 0.25232688 -0.010604413 0.16978076 0.09181554 -0.18642594
-0.31341523 -0.0011688331 -0.30619806 0.8498971 0.1722034 -0.50615287 0.3179675 0.7591246
0.73826367 0.16574152 -0.26264495 0.17387715 -0.058743104 -0.20999517 0.0077294707 -0.5548626
-0.16029926 0.36164245 -0.061765727 0.029359048 0.051326443 0.8091198 0.17561468 -0.037152957
-0.21870643 0.1199774 -0.0630117 -0.51275885 -0.029922072 0.026222939 -0.030282559 0.0070399027
-0.009580912 -0.001159243 0.027563233 0.026109876 0.020986734 -0.047324393 0.0271276 0.047359962
0.012753685 0.019956827 0.0077539603 -0.050362434 -0.011539578 -0.027820023 0.01680118 -0.02959487
-0.045195565 0.043236922 -0.025833724 0.019164627 -0.023753569 0.014572083 0.018079352 -0.035693966
0.04114169 0.05187767 -0.029610848 0.0126097 0.011594575 0.023536509 -0.0032008244 -0.005488784
-0.019809427 0.05801358 -0.0039422326 0.020571973 -0.052358516 -0.045956522 0.020394439 0.024615763
0.010629928 -0.024099018 -0.00496287 -0.036484033 0.0030564473 -0.19095798 -0.40658602 -0.17627293
-0.37085512 -0.24879387 -0.0793177 0.1857611 -0.28747657 -0.009661605 0.1736491 -0.4735598

encoder.conv3.bias f4 [10]
00000000: 9ad3 55bd 3940 d83f 894b c1be a885 70be
00000010: 1666 dabd c1f9 c23e 1819 9e3e 3735 643f
00000020: 4632 903e db8c b53d
-0.052203752 1.6894599 -0.3775294 -0.23488486 -0.106640026 0.38081172 0.3087852 0.891437
0.28163356 0.08864757

decoder.fc.weight f4 [6272, 10]
00000000: e3fb 77bf 2221 aa3f 798e 8cc0 7434 8140
00000010: d12e f4bf 83ad 7b3f 2e9d 3cc0 967b 253f
00000020: 8772 e0bf fa64 f7be fada 2cc0 59ee 83bf
00000030: 6a5a ba40 3152 c83e d4f7 bd3f e84a c2bf
00000040: 7d35 d9bd 4c4f d33f 7d41 153f a26b c83f
00000050: 7fc9 c13e 7dd4 643f d426 71bf 1abd 4a3f
00000060: 61b0 e3bf 974a d2bf 5876 66bd 0ca2 fcbe
00000070: 7c8b 8bbe 3db5 853f bf3e fcbe 512c 193f
00000080: 0005 70bf 0943 363f db06 063f 009e 0cbf
00000090: 1cd5 473f 9f0d 17bf 20f9 8f3d dd4e 37bf
000000a0: 2c5e 173e 060d 103f 7f00 b63f c5aa 7a3f
000000b0: cc44 12bf ed85 e83d 3685 d9be d373 0d3f
000000c0: f2a0 12be 59dd acbf 3cd7 0b3e 1786 213f
000000d0: 65ab 51be 9295 dfbf 5e77 ec3f 1215 62bf
000000e0: 4948 573f 205f 063e 3771 d23d db12 30bf
000000f0: 77ab 453f c89c fd3f 4b9e cf3f 56ae 23bf
00000100: ef54 783f 444d b5bc 902c 4e3f e40b 993e
00000110: da80 65be 170e 77be 38db 9fbe f438 173f
00000120: 5122 943e 91ed 95bf 9bb7 5cbf df13 453e
00000130: ae8a ae3f 65c2 c8bd 203b 8bbf 4d52 58be
00000140: 3725 c9be 66c6 903e 63b2 7e3e b576 83be
00000150: dfe4 febe 52e2 94be 7d94 c3be a521 b73e
00000160: d6fc a0bf a0c6 47be e57e 0f3f 86dd 3f3f
00000170: bfeb 9f3f cdd8 9f3d b006 54bf e9b3 4b3f
00000180: a7f8 ebbe fcb3 283e 3e16 563f fb50 2b3f
00000190: 9379 793f 322f 8c3e e958 313f 6fcc 9c3f
000001a0: ab0f adbf 47ff 06bf 181c 943e 20e5 a63d
000001b0: c72d b33d 75d0 a1be 17a2 4cbf 9d31 843d
000001c0: fce4 733e 6838 e93d 9ef7 f6be f6fe e5bd
000001d0: b6f0 983e 0c7b 0fbf f0f2 afbf fe5c 00bf
000001e0: 03e7 65bf d6d4 c7bd 7e6a 233f f7e3 5dbf
000001f0: 5c7e 1d3f f2bd 893c 5a43 203f c8e5 9d3f
00000200: d63b dcbe ee29 4cbf fcc3 21be 0a1f 6d3f
00000210: b16e 033f 2722 253f a4ed df3f 99b3 8b3f
00000220: 7e66 b13f 630d c13e 5068 0bbf 3fb1 b93e
00000230: 7fc1 17be f636 9b3d c62a e5be 8fd2 97bf
00000240: d75e adbf e6f2 dabd 77bd 533e 429f 9e3f
00000250: d808 1b40 41b6 6dbf caea 593f 5032 0dbe
00000260: 3aa7 a73f 6b9d 9dbe 3e19 453f 3a1e 93bf
00000270: 5336 b53f 93e6 9d3e 3c43 9a3f 010b 8cbe
00000280: 6195 cd3d b946 a0bf 0fe3 fbbe 2978 ad3e
00000290: a275 4a3f 20b5 dcbd 0593 5a3f 2f54 3b3e
000002a0: 3c8f 13bf 2c09 24bf 7c1a 8dbe 03ce 36bf
000002b0: 279c 35bf 98cf cdbe 48e4 8a3f c122 0bbe
000002c0: ea16 02be 87ab 9cbf f42a 2bbf eb39 493f
000002d0: 2e09 69bf 50fb 9abe bdde 0ebe 71c4 3bbf
000002e0: a4cf 393f 2d0a 19be 436a 453e 99d8 003f
000002f0: e8ea a2bf 9ecc fbbe 25cb 0fbf ffde 61bf
00000300: 5632 a3be 3905 8d3f 35ff 7bbe b5ae c9be
00000310: 457c 88bf 0864 8ebf 4b37 c5bf 5b0c b3be
00000320: d41d 253f 71d7 f3be a2db d0bd 280e b43e
00000330: bb8d ef3e d705 cdbf 2e28 8abe 7f35 8f3f
00000340: 25e3 6c3f 0e26 1abf 88d2 9f3e 27db 2f3f
00000350: 4411 fdbe abbb 1bbe 9a58 9f3f bfa1 55bf
00000360: b290 abbe 1031 c83f 152f 4d3e 4ecd a03c
00000370: 3f96 ae3e 2712 e83f 07f5 453f eb6d 69be
00000380: 870d a13f 108d 35bf 012e 74be 0839 9b3f
00000390: 0bb9 303f eee8 66bf 7bf3 d13e 8ec8 823e
000003a0: d1dd 0fbe ac2a 47c0 8993 e2be e7f2 d8be
000003b0: 82b2 eebd 5441 e23f 0231 d5bc d539 63bf
000003c0: 53f4 bb3f 1aa1 fe3f 6cb8 b13f bdc5 e73d
000003d0: bff3 97bf 60c5 5abf 5ab1 2f40 f8ea 13be
000003e0: 8b6e d13f 316e ad3e 2df3 95bf d3e9 d6be
000003f0: d87b e6bf 3b87 45bf 65c4 0d40 2cb6 afbf
-0.96868724 1.3291361 -4.3923917 4.037653 -1.9076787 0.9831163 -2.9470935 0.646417
-1.7534951 -0.48319227 -2.7008653 -1.0307113 5.823537 0.39125207 1.4841256 -1.517911
-0.10605905 1.6508574 0.5830305 1.5657847 0.37849042 0.8938673 -0.9419987 0.79194796
-1.7788202 -1.6429013 -0.056265205 -0.49342382 -0.27254856 1.0445935 -0.4926662 0.59833246
-0.9375763 0.7119604 0.5235421 -0.5492859 0.78059554 -0.5900516 0.07029939 -0.7160471
0.14782017 0.5626987 1.4218901 0.97916824 -0.57136226 0.11353669 -0.42484444 0.5525486
-0.14319208 -1.350505 0.13656324 0.6309523 -0.20475538 -1.746752 1.8473928 -0.883134
0.84094673 0.13122225 0.102755 -0.6877877 0.7721476 1.9813471 1.6220182 -0.6393789
0.970046 -0.02213157 0.80536747 0.29891884 -0.22412434 -0.24126469 -0.31221938 0.5907128
0.2893243 -1.1713125 -0.8621766 0.19245861 1.3636072 -0.09802703 -1.0877419 -0.21125145
-0.39286205 0.28276366 0.24872737 -0.25676504 -0.4978399 -0.2907892 -0.38199225 0.35767856
-1.257716 -0.19509363 0.56053 0.7494739 1.2493819 0.07805023 -0.82822704 0.79571396
-0.46088144 0.16474909 0.8362769 0.6692044 0.9745113 0.27379757 0.6927629 1.2249888
-1.3520406 -0.5273327 0.28927684 0.08149171 0.08748966 -0.31604353 -0.7993483 0.064547755
0.2381782 0.11387712 -0.48235792 -0.112302706 0.29871148 -0.5604713 -1.3746014 -0.50141895
-0.8980562 -0.09757392 0.6383437 -0.8667597 0.61520934 0.016814206 0.6260277 1.2335749
-0.430144 -0.7975148 -0.15797418 0.92625487 0.51340777 0.6450524 1.7494397 1.0914184
1.3859403 0.37705526 -0.54456043 0.3626804 -0.14819907 0.07578842 -0.44759196 -1.1861132
-1.3544568 -0.106908605 0.20677744 1.2392352 2.4224148 -0.9285622 0.85123885 -0.13788724
1.3097908 -0.30784163 0.7699164 -1.14936 1.4157203 0.30839977 1.2051768 -0.27352145
0.100382574 -1.2521583 -0.4919667 0.33880737 0.79085743 -0.10776734 0.85380584 0.18293832
-0.57640433 -0.64076495 -0.27559268 -0.714081 -0.70941395 -0.40197444 1.0850916 -0.13587476
-0.12704054 -1.2239846 -0.66862416 0.78604 -0.9102963 -0.3026986 -0.13952155 -0.7334662
0.7258246 -0.14945288 0.19278817 0.503305 -1.2727938 -0.49179548 -0.5616935 -0.8823089
-0.3187434 1.1017219 -0.24609073 -0.39391103 -1.0662924 -1.1124277 -1.5407499 -0.34970364
0.6449864 -0.47625306 -0.10198142 0.3516705 0.4678782 -1.6017407 -0.2698378 1.1188201
0.92534095 -0.60214317 0.3121531 0.68693775 -0.49427235 -0.15208308 1.2448914 -0.8344993
-0.3350883 1.5639973 0.20037492 0.019629147 0.34099004 1.813054 0.7732701 -0.22795837
1.2582253 -0.7091837 -0.23845674 1.212678 0.69032353 -0.9019917 0.41006073 0.25543636
-0.1404946 -3.1119795 -0.44253185 -0.4237282 -0.116551414 1.7676187 -0.026024345 -0.8876012
1.4683937 1.9892914 1.3884406 0.113170125 -1.187126 -0.8545742 2.7451997 -0.14445102
1.636186 0.33873132 -1.1714836 -0.4197527 -1.8006544 -0.7715947 2.215112 -1.372747

decoder.fc.bias f4 [6272]
00000000: 2705 29c0 1c8f 97bf aaab 17bf 70be 87be
00000010: 88a3 bdbe 8744 e83e ad34 203e 3a3d 94bf
00000020: 3d7a ebbe 8552 69bf 5bb5 4bbf cb7e efbe
00000030: fcb1 debf a9cc 463e 92f7 bfbf 26b8 39c0
00000040: 7672 12c0 4a0f d4bf 34f4 7bc0 6144 963d
00000050: bb2c cbbd da35 80bf 1f98 51bf 2a95 5cbf
00000060: e608 c0bf 0d77 1cbf 767b b43e 7382 febf
00000070: edb9 8abe 8390 20bf e30a dcbf 2b12 c7bf
00000080: b927 cdbf 4c80 78bf 6c02 08c0 8c17 8cbf
00000090: 4bf0 bdbf cb67 a8be 56b2 a83e fcc3 02c0
000000a0: 4c7f 1abf 355a 77bf 0402 dbbe 9d64 18bf
000000b0: 8aae 90bf 28c4 4bbf 40cf fdbf b4c7 31c0
000000c0: d6f1 19c0 b4d7 c4bf 42c9 76bf 5d91 62bd
000000d0: 9554 e7bc 0ee0 77bf e40e 27bf f2eb 42bf
000000e0: f893 e4bf 990d 03bf 1920 f43f 8db5 643f
000000f0: a44c c6bf 98a6 6dbf 20b3 83be 66c9 8fbf
00000100: dc38 bfbf 5136 d5bf 11a8 a6bf 7318 0fbf
00000110: f89f eabf 9570 74bd 12d3 c33f ad25 9fbf
00000120: 84c8 61bf 3c30 b3bf 9e80 99be d3ca 04bf
00000130: fac5 ddbe c52c 7b3f 36b6 cabf 4ed5 f8bf
00000140: b98a c5bf a931 6bbf accb 3cbf b9aa 2ec0
00000150: d22e c1bf 06be 36bf 780d b1be aea8 7b3e
00000160: 024d 22bf 19db 1bbf a790 54bf 47e0 55bf
00000170: 08fc 373f 6255 16be a3f1 2bbf 0019 f73e
00000180: 4812 b53f 86ea d83d d054 293e f848 823f
00000190: dda4 da3e 6871 8ebd 4293 5a3e cc37 53bf
000001a0: a604 ad3e 949b 7bbf 6118 16bf 27ec 87bf
000001b0: 91f4 37be f7aa 1cbf 41a2 25bf 712c 8bbf
000001c0: 3b89 09bd 5bce 32bf e40b bfbe b76e 713f
000001d0: 7ccb e43e 1d7b c0be 21a9 c3bf 32c9 49bd
000001e0: a6db 0ebf 1fa9 84bf 9e00 913d 921e f53e
000001f0: 870f 91be b615 0abf 54db 6b3f 1fc5 083e
00000200: 48d4 1a3f 5341 d83f 962a 01bf 2f27 cd3e
00000210: b30d ddbe b36d 0d3e b345 fabb d54a 9dbf
00000220: 0695 bbbf 5ff6 0140 a2b8 a1bd d9b6 04bf
00000230: ebff 3cbe 19e3 06bf 8979 0cbf f71a b2bd
00000240: 823d a2bf 0dee d2bf 307d dfbe 1d8e 1aba
00000250: 53c4 02bd e46c a3bf a331 dbbf ee48 753f
00000260: 3bd0 293f bc5e c43f 46ce 353f d656 c53f
00000270: 9881 0e40 f3db 3e3f 890f 333f 6066 473f
00000280: 17a5 e53f 3ff4 ed3e d941 83bf 7547 903e
00000290: f824 753e 3db3 27bf d846 e43f ed3d 6f3e
000002a0: b2e1 ca3e a59c 3ebf f932 aabf 0496 4a3f
000002b0: 9840 c8bf a30f c3be 1469 b4bf 639a 963e
000002c0: b7af 473f a69b aabd ddb2 b23f e036 1740
000002d0: bb0e 1a40 a30a 1d3f 6907 8ebd 3d58 20be
000002e0: 8f2d e13f e663 873f 883d c23f 09f9 253f
000002f0: 4473 13be 5a23 0b40 3cff e33d 064e 8cbe
00000300: 4fa4 853f 7c54 a53e ce06 2dbf c2b1 703f
00000310: 5cf9 a73e 4ad1 a5be 1796 833e e509 4abd
00000320: 40a6 1ebf ca03 08bf 2a55 d0be 569c 063e
00000330: fed6 c4be 1fdd a2be 3209 b53f fe20 a83e
00000340: 0368 953f 742a 2c3f 07e1 b4be b9fc 383f
00000350: fedb 813f 4868 8e3f 2d52 2d40 51bf 993f
00000360: 51ce fc3f 04ba 1a3d 3ffa 703f bb30 cfbe
00000370: e80c 25bf 30d7 8e3d 7544 dc3f 444c af3f
00000380: 8848 333e 040f 61bf 8cd8 bcbe 6e1f 81be
00000390: f3e8 2c3f 4731 82be d883 2abd ac9b 7dbc
000003a0: b289 743f 0080 f93f 010a 5e3f 80b7 7f3e
000003b0: a911 31bf dc9d b5bd bb3e 40be 1f65 73bf
000003c0: f01a 9b3e 0b1c b03d 8dff 4c3f 5215 9abe
000003d0: 0e7c bb3f ac06 98bf 8fa1 fabe 9342 4f3f
000003e0: 01b4 33bf 2b90 58bf 3535 633e c4d9 3d3e
000003f0: 3ed0 1ebf 94f7 e6bf 89f9 9fbf f293 d9bf
-2.6409395 -1.1840549 -0.59246314 -0.2651248 -0.37038827 0.45364782 0.15645094 -1.1581185
-0.45991698 -0.9114154 -0.795736 -0.46776423 -1.7398067 0.19414009 -1.4997427 -2.9018645
-2.2882361 -1.6567166 -3.93678 0.07337261 -0.09920641 -1.0016434 -0.81872743 -0.86165106
-1.5002716 -0.6111916 0.35250443 -1.988356 -0.27094975 -0.6272051 -1.7190822 -1.555242
-1.6027747 -0.97070765 -2.1251478 -1.0944686 -1.4838957 -0.32891688 0.3294856 -2.043212
-0.6035049 -0.9662202 -0.42774975 -0.59528524 -1.1303265 -0.79596186 -1.9828873 -2.777814
-2.4053855 -1.5378327 -0.96400845 -0.05531441 -0.028238574 -0.96826255 -0.65257096 -0.76141274
-1.7857656 -0.51192623 1.9072295 0.89339525 -1.5492139 -0.92832327 -0.257226 -1.1233337
-1.4939227 -1.6657201 -1.302004 -0.5589668 -1.8330069 -0.05967768 1.5298789 -1.2433373
-0.8819659 -1.3999095 -0.2998094 -0.51871985 -0.43315107 0.9811519 -1.5836856 -1.9440095
-1.543296 -0.9187265 -0.7374828 -2.72917 -1.5092413 -0.713837 -0.34580588 0.24576065
-0.63398755 -0.6088119 -0.8303322 -0.83545345 0.71868944 -0.14681008 -0.67165583 0.4826126
1.4146204 0.10591607 0.1653626 1.0178518 0.42703906 -0.06955224 0.21345237 -0.82507014
0.3379261 -0.9828427 -0.5863095 -1.0618943 -0.17964388 -0.6119837 -0.64700705 -1.0872937
-0.03357814 -0.69846123 -0.3731376 0.9430956 0.44686496 -0.37593928 -1.5285989 -0.04926414
-0.55803907 -1.0364112 0.07080196 0.47874886 -0.2833216 -0.5393938 0.92131543 0.13356446
0.60480165 1.6894935 -0.50455606 0.40068957 -0.43174514 0.13811378 -0.0076377033 -1.2288462
-1.4654853 2.0306623 -0.07896544 -0.51841503 -0.18457 -0.52690274 -0.5487295 -0.086965494
-1.2675021 -1.6478897 -0.43650198 -0.00058958103 -0.03192551 -1.2767606 -1.7124523 0.95814407
0.6633336 1.5341411 0.71017873 1.5417125 2.2266598 0.74554366 0.6994558 0.77890587
1.7941006 0.46475407 -1.025447 0.28179517 0.23939884 -0.6550787 1.783412 0.23363467
0.39625317 -0.7445777 -1.3296806 0.79135156 -1.5644712 -0.38097867 -1.4094567 0.29414663
0.78002495 -0.08330469 1.3960835 2.3627243 2.407149 0.61344355 -0.06935007 -0.1565866
1.7592028 1.0577362 1.5175028 0.6483312 -0.14399439 2.1740327 0.111326665 -0.27403277
1.0440768 0.3229102 -0.6758851 0.94021237 0.32807434 -0.32386237 0.25700447 -0.049325842
-0.6197243 -0.5313078 -0.40689975 0.13145575 -0.38445276 -0.31809327 1.4143431 0.3283767
1.1672367 0.6725228 -0.35327932 0.72260624 1.0145261 1.1125574 2.7081406 1.201151
1.9750463 0.037775055 0.94131845 -0.40466866 -0.6447282 0.069746375 1.7208391 1.369515
0.17508137 -0.8791354 -0.36883962 -0.2521929 0.6754295 -0.2542822 -0.041629642 -0.01547901
0.95522606 1.9492188 0.86734015 0.24972343 -0.6916757 -0.08868 -0.1877393 -0.95076174
0.3029399 0.08599099 0.8007744 -0.3009439 1.4647233 -1.1877036 -0.48951384 0.8096096
-0.7019654 -0.8459498 0.22188266 0.18540102 -0.620365 -1.8044305 -1.2498027 -1.6998274

decoder.conv1.weight f4 [16, 8, 3, 3]
00000000: 10d6 933e 077d 5fbe 55d7 e1bd 2899 2abe
00000010: 2e4e 06bf 95e8 003e f9e0 6e3e c9ea 483e
00000020: dde5 91be d493 96be c9f9 f43b 299d b3be
00000030: a8e9 c3bd 5d56 2abd 1b2a 123e a19f 84bf
00000040: 3267 b4be 6b02 d63e 62af d43e 94ee d8be
00000050: 7a6e 10bd 95cf f4be 4b3b 3abe 371a 83be
00000060: bbaf 99be 7064 98be a2ce 803d e6a5 cc3e
00000070: 2873 8ebe 7251 cabe 4f49 3ebe fbd6 4bbe
00000080: bef6 1a3e 4f06 383f 5251 80bf 5f04 0fbf
00000090: 4df6 b53e 25fc 4c3d dbef 103e 0a6b 683e
000000a0: 63df adbd 99dc f1be d37b b9bc 1804 bdbe
000000b0: 0748 f4bd a8cb e2b8 5022 413e 47eb efbe
000000c0: 2470 4f3f 757b ec3e df0c b63e 6226 103e
000000d0: 57d1 01be 6f2d ae3d 223c 6f3e 8dd7 8c3e
000000e0: f136 453f 7481 d73e bac6 0ebe d11a ab3d
000000f0: 932e dc3e 1ae5 01be 8009 17bd 42c7 7dbd
00000100: 304b 673f a3bc 193f b752 cd3d 3c57 1f3f
00000110: 7ffc d4bc 17f7 fc3e 6057 0abf 6394 d93e
00000120: 1343 a0be 47bd 043f b82b 0ebf 6c61 5b3e
00000130: 212d 933d 65e4 2a3e 4658 913c 1183 87bf
00000140: f76d 2b3e 3a0c bfbd b932 adbc c1ce 31be
00000150: 7d30 15bf c753 0ebf e71d 17bf 3773 8dbd
00000160: 8e10 e13d 93bc 483e 347e a6be 7779 f7bb
00000170: 99bb 47bd 05a2 df3c 9990 d0be d2d1 23bf
00000180: 05d0 ccbe 71b4 b0be a8e7 0cbf bfd0 293f
00000190: 272a 753e bea7 643e ed36 ff3e 4c10 443f
000001a0: 3e7c f33e c751 123f 0ec5 163f 4da9 3abe
000001b0: 3614 d03e 12cc dabd 4176 973d e673 a5bd
000001c0: 86df cc3d 38ac 85bd 930e a4be ce72 cd3a
000001d0: 31f1 6d3e dc4b a33e bfe0 0a3f ad07 0f3e
000001e0: 245e 4abe 28c3 943e 31f0 cdbd 0677 34be
000001f0: bec3 703e deba 5b3e 6fe1 4fbe 43b9 27bd
00000200: 75ca 9b3e b324 8a3d daab d5bd fdf6 90be
00000210: 0cfa a2be 78a8 6c3c b118 463e da9f 63be
00000220: ae9a c0be bc7f a33c a370 8c3d e9fd 45be
00000230: 5eb2 773e 40db 81be 96b5 163f d26a 323e
00000240: a159 a83e 13d6 37be bf0b 733e b0f7 fdbe
00000250: ceb2 77bf 2ea3 31be e372 bbbe 0c1c 12be
00000260: 4954 c6bd 5756 5fbe bcaa 14be c80f ecbe
00000270: 3b62 e03e e39b 9c3e 40ff 483e 8ada 2bbf
00000280: 237a a8be b458 24bf 8c31 c53e b08f b6bd
00000290: 6b80 56bf 731a e0be bc67 edbe 6511 4abf
000002a0: af2f 363e 05e1 ac3d f160 0fbe 2e00 5f3e
000002b0: 3443 1dbf f2f2 143d e87e 913e 614f 0fbf
000002c0: bdb5 ce3d 6b0a b4be b413 ec3d ee25 773e
000002d0: 5e9e c6be b7fe 813e f9cc 293e 3394 11bd
000002e0: 9841 c93e 4a85 063f 6458 b53e 69db c33d
000002f0: 384f ab3e e649 a63d 14e8 18be f88c 213f
00000300: dd12 acbe ee3f 393f ca11 f53e acab fb3e
00000310: 8d50 1dbf c2bf 36be b674 86bd 48e4 68be
00000320: cf50 133d f90b dc3e c2c7 253f c4df c03d
00000330: cfb0 083e ea35 36be b5c6 25be 2f07 33be
00000340: 1a5d 4d3e 41f1 e33e 07d5 c2be 5bf7 debd
00000350: d499 4d3f 212a 0abf c34e 9e3e ed92 d93e
00000360: 6735 b3be 6106 a4be ed42 eabe 97d4 43bf
00000370: e74a ccbe ef65 0bbf 6e0f 9ebe 88c3 ca3e
00000380: 6cd9 8c3d d17f 1f3f ebbb 8ebe be24 43bf
00000390: 0f5c 353e a0e6 9d3d f932 bbbc 35fc ee3e
000003a0: 2f59 b2be 6e96 523e 4160 ec3d fd5d b4be
000003b0: fc8b acbe 6dc4 423e f2ac 8f3e 45ee 19be
000003c0: 2539 953e 30ba c0be 7105 5bbf f953 54bd
000003d0: 7744 a0bd 1e6b 1cbe 9875 073f f42c aabe
000003e0: 93d6 363e a1ec 4cbe 58d1 a43e aa4c f83e
000003f0: 06d2 55be 9dca e53e e473 51be 3822 e33c
0.28874254 -0.21825038 -0.110273995 -0.16659987 -0.5246304 0.12588723 0.23328008 0.19620813
-0.28495684 -0.2940966 0.007476066 -0.3508084 -0.09566051 -0.04158627 0.14273874 -1.0361215
-0.35234982 0.4179872 0.41540056 -0.4236952 -0.03526161 -0.47814623 -0.18186681 -0.25605938
-0.30016884 -0.29764128 0.06289412 0.3997032 -0.27822232 -0.39515263 -0.18582653 -0.19906227
0.15133187 0.71884626 -1.0024817 -0.55866045 0.35539475 0.05004515 0.14153998 0.22697082
-0.08489873 -0.47238615 -0.022642052 -0.36917186 -0.119278006 -0.00010814454 0.18860745 -0.4685919
0.8103049 0.4618794 0.35556695 0.14077142 -0.12677513 0.085047595 0.23362783 0.27508202
0.7703696 0.42090952 -0.13942996 0.08354724 0.43004283 -0.12685052 -0.036874294 -0.061957605
0.903491 0.6005346 0.10025542 0.62242484 -0.025999306 0.49407265 -0.54039574 0.42496023
-0.31301174 0.51851314 -0.5553546 0.21423882 0.07186342 0.16688688 0.017742287 -1.0586873
0.16741167 -0.09328504 -0.02114235 -0.17364027 -0.5827711 -0.55596584 -0.5903 -0.06906741
0.10989486 0.19603185 -0.3251816 -0.0075523215 -0.04876289 0.027298937 -0.4073532 -0.63992035
-0.40002456 -0.34512666 -0.5504098 0.66334146 0.23941861 0.22329614 0.49846593 0.7658737
0.47555727 0.5715603 0.5889443 -0.18228646 0.4064042 -0.106834546 0.07395602 -0.080787465
0.10003571 -0.06526989 -0.3204237 0.0015674473 0.23236538 0.31893814 0.54249185 0.13967772
-0.19762474 0.29055142 -0.100555785 -0.17623529 0.2351217 0.21458003 -0.2030084 -0.040948164
0.304279 0.06745281 -0.10433169 -0.28313437 -0.31831396 0.014444463 0.19345357 -0.22228947
-0.3761801 0.01995837 0.06857421 -0.1933514 0.24189135 -0.25362587 0.5887083 0.17423561
0.3288088 -0.17952757 0.2373495 -0.49603033 -0.9675721 -0.17347404 -0.3661109 -0.14268512
-0.09684045 -0.2181028 -0.14518255 -0.4610579 0.43824944 0.30587682 0.1962862 -0.6713034
-0.32905683 -0.6419785 0.38514364 -0.08914125 -0.837897 -0.4377018 -0.46368206 -0.7893279
0.17791627 0.084413566 -0.14001824 0.21777412 -0.6143067 0.036364503 0.28417134 -0.559805
0.100932576 -0.35164198 0.115271956 0.24135563 -0.387927 0.25389645 0.16582097 -0.035541724
0.39307857 0.5254713 0.35419 0.095633335 0.33458877 0.08119564 -0.14932281 0.63105726
-0.33608142 0.72363174 0.47865134 0.49154413 -0.61451036 -0.17846587 -0.065652296 -0.22743332
0.035965737 0.42977884 0.6475793 0.0941768 0.13348697 -0.17794004 -0.16189082 -0.17483209
0.20055047 0.4452 -0.38053152 -0.10887023 0.8031285 -0.53970534 0.30919465 0.42494908
-0.3500168 -0.32036117 -0.45754185 -0.7649626 -0.39900896 -0.54452413 -0.30871147 0.39602304
0.068774074 0.6230441 -0.27877745 -0.7622794 0.17710899 0.07710004 -0.022851454 0.46676794
-0.34833667 0.20565197 0.115417965 -0.35227957 -0.3370055 0.19020243 0.28061634 -0.15032299
0.2914516 -0.3764205 -0.8555518 -0.051837895 -0.07825559 -0.15275237 0.5291381 -0.33237422
0.17855291 -0.20012142 0.32190967 0.4849599 -0.20880899 0.44881144 -0.20454365 0.027726278

decoder.conv1.bias f4 [16]
00000000: 17b3 e5be 5742 e4be 4ee0 2cbd aa89 9fbe
00000010: 9b8b 9dbf 95d9 383d ce7f 72bf a1ae 6cbe
00000020: f76b 60bf c2ed bcbf eac7 0ebe ecb8 9bbf
00000030: 0f66 db3e 7603 a43e ea72 8dbd 5954 24c0
-0.44863197 -0.44581863 -0.0422061 -0.31159717 -1.2308229 0.045129377 -0.94726264 -0.2311349
-0.8766474 -1.4760058 -0.13943449 -1.2165809 0.42851302 0.3203389 -0.06906684 -2.5676482

decoder.conv2.weight f4 [4, 16, 3, 3]
00000000: 5303 753e b8c2 2d3e 06ba 793d 3602 c13e
00000010: e3bc 873e 252e e53b 319a 8c3e c06f a13d
00000020: 22b2 26bd c702 bcbe 6a3b 0b3d a593 493e
00000030: b850 c7be b09e d4ba b1d6 bc3e 18f8 b8be
00000040: f5ea 0c3e 3d18 1b3e b0ee c8be f359 5dbe
00000050: 97c5 67bd 8289 eb3d 7b4b 303e 6231 923e
00000060: 17b2 933e a505 ca3e a258 8c3e 29b3 93be
00000070: 8eeb c7be 1f75 afbe 334d f4be d37d 27bf
00000080: 9fbb c5be ae49 03bf 92f9 ffbe 6c53 86be
00000090: f135 103f 6e13 323f 4ea8 c73e 2ac6 8f3e
000000a0: 43f4 1d3e 340a 01bd bb24 2cbe da15 85be
000000b0: 2e7c 23be 802b fbbd 9ff0 b13d 10d3 5d3e
000000c0: de95 5d3e 0773 de3e 5d50 b63e e716 a93e
000000d0: c160 e33e da30 453e e320 a1bd fb42 133d
000000e0: f1df 1c3e 8ce7 b53d c4ab e33e 868f af3e
000000f0: 5143 323e 48da 953e d790 783d 754a 18bf
00000100: 7369 0fbf fb58 d9be 90c6 08bf 9e1e 24bf
00000110: e731 cabe cae1 c8be 4282 aebe 3335 7bbe
00000120: 0f2b 073f 3e0c 38bd fd85 b8be 6129 f63e
00000130: d806 ecb8 3b7f b3be e737 c93e e6bd 9cbd
00000140: 3cd8 7dbe 55ae cb3e 33cc 10bd a928 b7be
00000150: 5e5d a2ba 0eea 05bf 4599 13bf 4038 b3be
00000160: b489 22bf dd34 e1be d22c 8a3e f40e 483e
00000170: d774 df3a 9fc7 553e 5605 583e f786 dbbd
00000180: 2620 2b3e 475b 473d e1c1 e2bc 635e f43d
00000190: 6cf6 9d3d a665 38bd 0426 e53e 3897 d63e
000001a0: a1d7 243e 7933 e53e cf8a b63e 428d 223e
000001b0: 4b0c 923e e5b1 e23e 1dfa ae3e 1a82 d53e
000001c0: 8fa3 103f c7f8 a43e 3bd8 b63e f6fa ae3e
000001d0: d9a2 eb3d e468 333e ca26 3fbe 7c15 c3be
000001e0: a9f6 c3bd 00b7 fdbe 99f9 08bf f6f9 78be
000001f0: 4608 d8be 8289 e2be e8a9 b73e d051 ca3e
00000200: e526 963e 5aee b43e e2fc 803e 9ff0 2e3e
00000210: 4c93 263e 57a1 b83d e52c 8f3d 4ef8 07bf
00000220: 07db 98be cd88 063e 1078 15bf 253d 2fbe
00000230: 7f28 293e 35c8 19bf 1b06 d6bc 8ab2 273a
00000240: 1ba1 4e3d 1753 fb3d 6494 ea3b b481 773e
00000250: 5dab a93e ad9b f33d 118b 913e 15a9 563e
00000260: e916 203d 6ddf 28be a1fe 583c 87df ad3e
00000270: 821d 98be 2b75 723d 0749 f13e 7a0b 78be
00000280: dbf9 a73d 403e 973e af02 08bc fdc8 fbbc
00000290: b671 153d c28d b83d 28a3 653e a676 5f3e
000002a0: 6f88 323e 4ec5 9e3e b241 a23e f367 12be
000002b0: d499 9bbe 5c94 a1be 9c7f 8abe 5800 06bf
000002c0: c72e debe d5e1 9cbe 28ed e0be 173b acbe
000002d0: bba8 383e a0c8 b43e c249 ba3e ef1c f23d
000002e0: 1cb8 683d a014 acbb 7e52 82bd 7c01 90be
000002f0: 1132 7fbe a923 a7bc 1fd6 c73d 78f3 3f3e
00000300: 5431 0a3e 0b09 c43e 6f3e b93e b7ce 8a3e
00000310: f7aa d53e b0d9 913e c78f c1bd ce43 cabd
00000320: 134a 3f3e c583 51be 981c 2d3d dc32 b23e
00000330: adb4 7e3d 19c2 6e3e 45e7 9e3e 41a0 3ebe
00000340: 26a7 c4be 9d97 c2be 5853 85be 7d2b ebbe
00000350: f5f1 c6be 2bbd 73be 5861 b1be 538c 8cbe
00000360: 75a0 e13b d637 24bd fcb7 e6be 5409 713e
00000370: 90be 07bc 2ef5 03bf 2d89 2f3e 2b4b ed3c
00000380: d8f2 b4be e6fb 163d 7754 2b3c 0ffd a4be
00000390: 59f5 f9bc f8cb d4be 7256 05bf e3c2 a4be
000003a0: b32e 1ebf 13ef 15bf 241a 183e 189f 0f3e
000003b0: c9f6 9abd 4922 0e3e 0af9 273c d75f 68be
000003c0: 1fae 813c 56ae d4bd 4a8c 83be acf6 8d3e
000003d0: 7f98 cf3e 0a99 a13e c07c dd3e e8f1 3d3f
000003e0: eb6b 0f3f 5558 da3e 371c 173f 635b d03e
000003f0: 1b9a b13d 0ce3 693e 2f45 083e dcec 503e
0.2392705 0.1696881 0.06096842 0.37697 0.26511297 0.0069940262 0.2746139 0.07882643
-0.040697224 -0.3672087 0.03399221 0.19685228 -0.3892877 -0.0016221609 0.36882547 -0.3612678
0.13761504 0.15145965 -0.39244604 -0.21616344 -0.05658492 0.11500837 0.17216294 0.285533
0.2884681 0.3945743 0.2741137 -0.28847626 -0.390469 -0.34269044 -0.47715148 -0.6542637
-0.38619706 -0.512843 -0.49995095 -0.2623552 0.5633231 0.695609 0.38995594 0.28080875
0.1542521 -0.03150387 -0.16810887 -0.25993234 -0.1596534 -0.12264156 0.08688473 0.21662545
0.21639201 0.43447134 0.35608187 0.33025286 0.44409755 0.19256917 -0.07867601 0.03595255
0.15319802 0.08882055 0.44466984 0.34289187 0.17408492 0.29268098 0.060685005 -0.5948861
-0.5602028 -0.424507 -0.5342798 -0.6410922 -0.39491197 -0.39234763 -0.34083754 -0.24532013
0.5280008 -0.04493355 -0.36039725 0.48078445 -0.00011254632 -0.35058007 0.39300463 -0.07653408
-0.24789518 0.39781442 -0.03535099 -0.3577321 -0.0012387445 -0.52310264 -0.57655746 -0.35003853
-0.6349137 -0.43985644 0.2698732 0.19536954 0.0017048371 0.2087693 0.21095785 -0.10719102
0.16711482 0.048671033 -0.02768034 0.11932065 0.07713017 -0.045018815 0.44755566 0.41912246
0.16097881 0.44765833 0.35652778 0.15874198 0.28525004 0.44276348 0.34175196 0.41700822
0.5649957 0.32221052 0.35711846 0.34175843 0.1150567 0.17520481 -0.1866714 -0.3810233
-0.09568531 -0.4955368 -0.53505856 -0.24314103 -0.42193812 -0.44245535 0.35871816 0.39515543
0.2932655 0.35338098 0.25192934 0.17083977 0.16267127 0.09015148 0.06990985 -0.5311326
-0.29854605 0.13138123 -0.58386326 -0.17113169 0.16519354 -0.60071117 -0.026125958 0.0006397149
0.05044661 0.122717075 0.007158803 0.24170572 0.33138552 0.11894927 0.28426412 0.20962937
0.03908435 -0.1649148 0.013244302 0.339596 -0.29710013 0.05919377 0.47126028 -0.24223128
0.08201953 0.2953968 -0.008301421 -0.030735487 0.036485396 0.09011413 0.2242552 0.21822605
0.17434858 0.31009907 0.31690747 -0.14297466 -0.303908 -0.31558502 -0.27050483 -0.52344275
-0.43395063 -0.30641046 -0.43930936 -0.33638832 0.18033116 0.35309315 0.36384398 0.11821925
0.056816205 -0.005251482 -0.063633904 -0.28126132 -0.24921443 -0.020402746 0.09757637 0.1874522
0.1349538 0.3828815 0.36180446 0.27110836 0.41731998 0.28486395 -0.094512515 -0.09876214
0.18680601 -0.20460422 0.042263597 0.34804428 0.062184025 0.2331623 0.3103582 -0.1861582
-0.38408774 -0.38006297 -0.2604015 -0.45931616 -0.38856474 -0.2380263 -0.3464458 -0.2745081
0.006885583 -0.04009231 -0.45062244 0.23538715 -0.00828518 -0.5154599 0.17142172 0.028966507
-0.35341525 0.036861323 0.01045715 -0.32224318 -0.030512499 -0.41561866 -0.5208503 -0.32179937
-0.6179001 -0.58567923 0.14853722 0.14025533 -0.07566602 0.13880266 0.010252247 -0.2269281
0.015830098 -0.103848144 -0.2569297 0.27727258 0.40546033 0.31562072 0.4325924 0.74197245
0.56024045 0.42645517 0.5902743 0.40694723 0.086719714 0.22840518 0.13307641 0.20402855

decoder.conv2.bias f4 [4]
00000000: 5ef4 113f e236 a5bf 1d85 a83f acdc ff3f
0.570135 -1.2907374 1.3165623 1.9989219

decoder.conv3.weight f4 [1, 4, 3, 3]
00000000: ce32 b3bd a0c7 a3bd f214 2ebd 080e d8bd
00000010: 9a2e 93bd 1174 6ebc e031 a4bd 5fb3 45bd
00000020: 1743 333c d5d0 173d 9b26 923b 747d 74bd
00000030: 4738 253d 686d 743b 0084 b4bd c6f9 f6bb
00000040: d4c2 3fbd e771 d4bd 2b9f 8cbc f38e 5fbd
00000050: fc89 21bd e555 24bd 7e8a cbbd 384f 85bd
00000060: 9f67 01bc 35f0 1abd 242a a5bc f82d 6c3d
00000070: 4493 c53d a055 b13d 0ac8 e23d a98e 053e
00000080: 316c f73d 14b9 a63d b214 d93d bacb 903d
-0.087499246 -0.0799706 -0.042500444 -0.10549551 -0.07186623 -0.01455404 -0.080173254 -0.048266765
0.010941288 0.037064392 0.0044601685 -0.059689954 0.040336873 0.0037296657 -0.088142395 -0.0075370995
-0.046816662 -0.10373288 -0.017165741 -0.054579686 -0.039438233 -0.040120978 -0.09938525 -0.065092504
-0.00789824 -0.037826736 -0.020161696 0.057661027 0.09647229 0.0865891 0.11073311 0.13042702
0.12081183 0.081407696 0.105996504 0.07070108

mean_layer.weight f4 [10, 10]
00000000: 27d0 06bf 7c62 523e cada c2bd 737d 7e3e
00000010: 2b03 23be 124c 173e eacd b73d 9217 fbbe
00000020: 1075 973e 8d66 51be 3433 44bd 07a4 233d
00000030: 98e7 9c3e ca62 15be 4405 afbe 2bc7 cb3e
00000040: 136f 21be 0729 d43d c145 d63c 02d5 b43b
00000050: 6c50 7fbe decb 3abd c553 f4bd e6d2 1abe
00000060: 107e 843e 58cd 1d3e 9d02 a0be 1fed 1a3d
00000070: c9af 2e3d 4025 583e be8f 1d3d 4db1 8fbe
00000080: 964f e33b a20a 4cbe 71cc 813c 025f e13a
00000090: 9aae 14bd 132b 65be 3a1b 29be 12df 23be
000000a0: 0498 89bd b140 03bd 61df 1cbc e1e5 7a3e
000000b0: 63d9 c2bd 0c48 07be e4af a9be 24ae c53d
000000c0: 176b 28be 0235 94bd 0b68 b53e 33b9 1f3e
000000d0: ed4b fcbe 9a07 07be f7d4 87be 6a64 ac3d
000000e0: 69e2 9abe d07e e4bd ee5a 753e 19c4 b73d
000000f0: 2c8e e33d e139 2e3e b16e 35be 3cfd 0a3e
00000100: c165 f43d d536 9c3e 8f14 1d3e 7859 873d
00000110: e426 9bbe a06e f9bd 4d09 5e3e 7309 703e
00000120: 0afe 2b3e 314b b53c 2667 803e f66f a93d
00000130: 4b74 34be d42c 14be 303c 363e f25e 45be
00000140: a954 503d cc6c 213a ffd9 bb3d 1908 b83d
00000150: b87b b2bc 4931 c6bb ee53 09bc bdaf 5bbe
00000160: a1f2 fbbd 5cc9 763e a409 c1bd 4587 4c3f
00000170: 711e 05bc c81e 25bf 2e33 80bd e211 98be
00000180: daa7 44bd 45f0 83be 98fd 30bf 75d1 14be
-0.52661365 0.20545381 -0.09514387 0.24852543 -0.15919177 0.14775112 0.08974822 -0.4904142
0.295815 -0.20449276 -0.047900394 0.03995135 0.30645442 -0.14588466 -0.34183705 0.3980039
-0.15765028 0.10359388 0.026156308 0.0055185566 -0.24933022 -0.04560458 -0.1193004 -0.15119514
0.25877428 0.15410364 -0.31251994 0.037823793 0.04264811 0.2110796 0.03846716 -0.28064957
0.0069369776 -0.19925931 0.015844556 0.0017194452 -0.036299326 -0.22379713 -0.16514292 -0.16003063
-0.06718448 -0.032044116 -0.009574742 0.24501754 -0.095141195 -0.13211077 -0.33142006 0.09652355
-0.16447102 -0.07236673 0.3543094 0.15597992 -0.49276677 -0.13186494 -0.26529667 0.0841759
-0.30250862 -0.11157 0.23960468 0.089729495 0.111111015 0.17014267 -0.17718007 0.13573164
0.119334705 0.30510584 0.15339874 0.06608862 -0.3030311 -0.12179303 0.21683235 0.23441105
0.16796127 0.02213058 0.25078696 0.08273308 -0.17622487 -0.14470226 0.17796397 -0.192745
0.05086199 0.00061578746 0.09172439 0.089859195 -0.02178751 -0.0060483557 -0.008381827 -0.21453758
-0.12302137 0.2410025 -0.09425667 0.79893905 -0.008124934 -0.64500093 -0.06259762 -0.29701144
-0.04801164 -0.2576925 -0.69136953 -0.14533027

mean_layer.bias f4 [10]
00000000: f70f ab3e 4c9c df3d c44c 52bd 89aa 8abf
00000010: 69a9 373e 959f 1abc 0147 fcbd ad04 00bc
00000020: e1f2 73be 7924 46c0
0.33410618 0.10918483 -0.05134274 -1.0833293 0.17935719 -0.009437461 -0.123182304 -0.007813615
-0.2382312 -3.095976

logvar_layer.weight f4 [10, 10]
00000000: acd8 44bd 5ff0 633d c5c5 21bc 60f2 fa3c
00000010: 6308 433d 9aa0 f93c 65b8 5a3d 4247 ba3a
00000020: f1c1 f13d 504a 0fbc 9151 15bd fa2b 95bc
00000030: 3257 d7bc ad78 c43d 5283 c03b 6d6d 243c
00000040: 7d35 4d3d 9a92 133d 73f1 a73d 916e f8bb
00000050: e842 5dbd cdf7 973c d3f8 a6bc b44f 9b3d
00000060: 7e03 12bc b3c1 96bb 3cf7 2c3d 3bde 8b3c
00000070: dedd 033e a1b6 6a3c b49f f43b e7ad ebbd
00000080: 5e66 2bbd 2000 d13d 0d23 2bbc a483 9c3d
00000090: 613c 53bb 37a4 1b3c 7e01 243e 9ecb 1f3d
000000a0: 23bc 633c 3dd9 9e3c 6763 bdbc 03df 073e
000000b0: 970b d03c c329 293d 4d40 c7bb 0d70 753b
000000c0: 8658 013e 6b12 3dbb 93be d1bc 1e98 173d
000000d0: bc7c bb3b d549 883d bbdb d63c 6f99 0a3d
000000e0: 9f05 c83c 5f75 863d f143 f23d 43a7 003b
000000f0: c5fc 3fbd 5ce4 ab3c 6aba e6ba fc00 eb3d
00000100: 0d26 bc3c 96c9 e13a 46d7 eb3b a9ae 333d
00000110: e105 193e 9222 17bc 92db 11bd ca4f 05bd
00000120: 1ec2 a2bd ec71 813d c8d5 a9bc a5c9 713b
00000130: 1775 0abc 463a 6f3c af55 e83d 4688 a43b
00000140: f627 21bd 187b 11be 1e69 83bd 666e 6d3d
00000150: 2299 533c 27ee 9f3d 11bb 6dbd 1871 b33c
00000160: cee9 203e 465c 123d e652 a3bb 719a e23d
00000170: 42ff f1bc 7d42 2b3d 228b 2d3d feff 79bd
00000180: 74eb 8e3b 2d2f 0dbd 7f10 883b 0b89 edbc
-0.048058197 0.055649158 -0.009873812 0.030633152 0.04761542 0.030472089 0.05339851 0.001421191
0.118045695 -0.008745745 -0.03645474 -0.018209446 -0.026286695 0.095933296 0.0058750296 0.010035855
0.05009984 0.036028482 0.0820035 -0.00758154 -0.054018885 0.018550778 -0.02038232 0.075835615
-0.008911965 -0.0046007275 0.04222797 0.017073741 0.12877604 0.014325769 0.007465327 -0.115077786
-0.04184567 0.10205102 -0.0104453685 0.07642296 -0.0032232034 0.009499601 0.16016194 0.039012544
0.013899836 0.019390697 -0.023118688 0.13268666 0.025396151 0.041299593 -0.0060806633 0.003745082
0.12631425 -0.002885009 -0.025603568 0.037010305 0.0057216566 0.06654707 0.026227823 0.033837732
0.024416743 0.065653555 0.11829365 0.0019630946 -0.04687192 0.020982914 -0.0017603163 0.11474797
0.022967363 0.0017226215 0.0071972935 0.04386774 0.14943649 -0.009224551 -0.03560979 -0.032546796
-0.07947181 0.06320557 -0.020731822 0.003689387 -0.008450768 0.014601296 0.11344468 0.005021128
-0.03934475 -0.14207113 -0.06416534 0.057966612 0.012914928 0.07809096 -0.05803973 0.021904513
0.1571419 0.03573253 -0.0049842475 0.110646136 -0.029540662 0.041811455 0.042369016 -0.06103515
0.0043615643 -0.03446882 0.004152357 -0.028996011

logvar_layer.bias f4 [10]
00000000: cf5f 2dc0 da35 3cc0 ff59 61c0 96cd 95c0
00000010: 3548 77c0 6d2d 26c0 bba4 59c0 5248 72c0
00000020: e59f 99c0 c724 31c0
-2.7089727 -2.9407868 -3.521118 -4.681346 -3.8637822 -2.5965226 -3.4006793 -3.785664
-4.8007684 -2.7678697
