vae.pth (torch, 579400 bytes, 17 tensors)

encoder.conv1.weight f4 [16, 1, 3, 3]
00000000: f628 64bd 253d c8bd c5e4 59be ca5c a2bd
00000010: 0da3 e63e 0665 89bc 96cd 7ebe d7aa 98bc
00000020: f9f5 1abe 0b70 80be c08d b4bd b6d7 1f3d
00000030: 1f59 88be 4e54 32be 3ec8 3f3e 1645 953c
00000040: 0f5f 8cbe 6b50 a8bc 1b42 8c3e 8c86 2f3e
00000050: 9d31 1d3e bb8a 9c3d 6658 3abc be48 973d
00000060: 7c7e 0d3e 96e9 983d 8542 d03d 88f4 42be
00000070: 6862 19be 1568 1c3e 003b 91bc a9d6 9bbe
00000080: 6afa 0dbd a77d 4b3e f5b7 b5bd 9a81 13be
00000090: 6d87 d0ba 20c1 f0bd bc89 08be 16f2 63bd
000000a0: 208b d5bc 1000 7e3c cad9 c43d 17b9 e13d
000000b0: 58ae e03d 095b a2be e065 4abc 6dab 39ba
000000c0: f2b0 fbbc 581d 55bd ac29 cb3d f78f e8bd
000000d0: 07f2 5b3b 94ca 073e f988 9f3c 323c b4bd
000000e0: 04c8 3dbe 725a a13d 909c b83c 3ad8 16be
000000f0: c34a 0c3e e0d2 97bd 6531 1cbf 6b69 1a3e
00000100: 0aee 473b 5100 3ebe 406f 1bbd aeab 6fbe
00000110: a73f 843b d113 d7bd c21b 71bd e7d4 113e
00000120: 5f4f c3bc e535 f33c bfdd 32bd 1a7b 1e3d
00000130: 1855 5b3e 23af e23c 86aa abbc 992e 49bb
00000140: 5312 83bd 1cfc 57bd b4f0 663d 8882 db3d
00000150: 7c07 f6bc 417d 61bd 6598 e13d 00ab 40be
00000160: 0c62 95bd 78f3 e63c 87ff 463d 3087 43bc
00000170: cc54 d63b 162a 9a3d 3363 a63c 6769 b03d
00000180: 810d b23d 239a 833d 92ec 823d a8b1 feba
00000190: 4b44 3c3d 04d3 063e 01b4 a2bb 8b6f c53c
000001a0: 758b 983d 373e 0a39 e3a9 183c 1335 9f3b
000001b0: ad07 fdbd 61cc 80bd 9716 19bc 7e7c 27be
000001c0: 1206 133e dfb9 1dbd 5f83 383e 03e4 d9bc
000001d0: 5988 6ebe fa59 15be 55e7 08be 2890 edbd
000001e0: 3d18 1bbe ea84 783d 7340 eabd e440 e03c
000001f0: f88f 893c fd9a 72be da74 4ebc 8d52 1b3e
00000200: 8abc a63d 88ac e4bd 69e0 8e3d 78b9 bbbc
00000210: 81c3 4fbe 4677 02be aaaa a6be f889 da3d
00000220: b4fb 493e 461e 8f3d 80ba d93c 61b6 003c
00000230: bf8d c13c c5c3 773d 57dd d83c 56c4 ad3c
-0.055703126 -0.097772874 -0.21278675 -0.07927854 0.45046273 -0.016771805 -0.24883112 -0.01863615
-0.15132894 -0.25085482 -0.08816099 0.039024077 -0.26630494 -0.17414972 0.1872873 0.01822142
-0.27416274 -0.020546159 0.27394184 0.1714117 0.15350957 0.07643648 -0.011373615 0.07386921
0.13817781 0.07466428 0.101689376 -0.19038594 -0.14978945 0.15274079 -0.017728329 -0.3043721
-0.03466264 0.19872151 -0.08872978 -0.14404908 -0.0015909501 -0.11755586 -0.13333791 -0.055650793
-0.026067317 0.015502945 0.096118525 0.11021631 0.109707534 -0.3171008 -0.01235339 -0.00070827344
-0.030724023 -0.052029938 0.09920058 -0.11355584 0.0033561008 0.13260871 0.019474493 -0.08800544
-0.18533331 0.07878579 0.022535592 -0.14730921 0.13700394 -0.07413268 -0.6101287 0.15079276
0.0030506873 -0.18554808 -0.037947893 -0.23405334 0.0040359083 -0.105018266 -0.058864363 0.14241372
-0.023841558 0.029688785 -0.043668505 0.038691618 0.2141918 0.027671402 -0.020955335 -0.003069794
-0.063999794 -0.052730665 0.056381896 0.10718256 -0.030032866 -0.055051092 0.11015395 -0.18815231
-0.072940916 0.028192267 0.048583534 -0.011934087 0.0065408703 0.075275585 0.020310974 0.08613854
0.08693982 0.064258836 0.063927785 -0.0019431608 0.045963567 0.13166434 -0.004965306 0.02410104
0.07448474 0.00013183882 0.009317848 0.004858622 -0.1235498 -0.06288982 -0.009343765 -0.16356084
0.14357784 -0.03850734 0.18018864 -0.026597982 -0.232942 -0.14585105 -0.13369496 -0.11599761
-0.15145965 0.06067363 -0.11438074 0.027374692 0.016792282 -0.23691936 -0.012601102 0.1516821
0.0814143 -0.1116572 0.069763966 -0.022915587 -0.20289423 -0.12740812 -0.3255208 0.10670847
0.19724923 0.06988196 0.026578188 0.0078559825 0.02362716 0.060489435 0.02647273 0.021211784

encoder.conv1.bias f4 [16]
00000000: ce17 01ba 3b4d 8bbe dc4a dbbe 795c 6e3c
00000010: 4f28 92b9 07e1 1f3b ae74 c5ba 8af1 ab3b
00000020: 98c1 ecb9 a876 ceba c9c9 e239 15cb 8c3a
00000030: f35c faba 6f57 c73d 60fd b3b9 c6f5 fb39
-0.00049245066 -0.2720736 -0.4283055 0.014548414 -0.00027877322 0.0024395601 -0.001506468 0.0052472996
-0.00045157666 -0.0015751915 0.0004325642 0.0010741676 -0.0019101187 0.097334735 -0.0003433032 0.00048057566

encoder.conv2.weight f4 [8, 16, 3, 3]
00000000: 55ac d2bc 203d 533d c296 49bc e0aa c53d
00000010: 2af8 003b 9d2d 85bd 6943 c23d f981 593d
00000020: 217a 15be 2bfb 203c d6d6 b9bc 6cab 8e3d
00000030: 587d 06bd e3aa 3abd bc26 843d ce00 3e3d
00000040: af25 97bd 162e b43b ef12 2ebe 63a2 44be
00000050: 03f9 32bd 3de9 5abe f9aa 23be c874 31bd
00000060: 6fa7 27be 5a41 f9bd 0277 ad3c 5d2e 15bd
00000070: 7ee0 01be 1c34 98bb b8a3 8ebd 3cd0 36b8
00000080: ebb1 673d 996a c9bd 2e3a ad3c 06d4 f63b
00000090: c240 e73c a82d 04be 5c26 dcbd 4e73 d2bb
000000a0: 5ecb 00be 47bf 58be bac5 4fbb 8c86 0f3b
000000b0: 6306 5abd a16b 2c3e ef34 933e 694f e23d
000000c0: 3a67 f03d 77c8 953e d5e0 383c 44e6 953d
000000d0: 8d25 d63d feb4 1d3c 21cb 8d3e fe83 0f3d
000000e0: f04d 05bd 7ac6 7e3d 6dcf d4bc 840c 083d
000000f0: 8038 e53d eb7a 323d 336e e5bd a130 37bd
00000100: f6b4 073e 839b 1d3e e93f 3c3e 66ec 843d
00000110: 7ff0 5f3e a8bb 083d da7b fd3c 70d9 853d
00000120: 90c6 073e 5c85 61bc 1107 46bd a2f6 2e3d
00000130: 0340 1b3b dffe 21be 0bad 613d 7044 26b9
00000140: 9cee 0abe 0331 d43b 5935 493c af9b 34be
00000150: 2bbb 96bd 8021 c03c e131 ce3d e036 7fbd
00000160: cb14 0e3e 76e6 d63c 5f36 c1bb cd32 c3bb
00000170: 8ab9 5ebe 9920 3e3e 42cc fa3c 9ad8 89be
00000180: 4cc1 a43c 1dbd 4fbd b7ff 17be 9879 533e
00000190: a2e2 263e 2df3 85bd 0800 b93d 4169 fc3d
000001a0: fca2 0dbe 2397 823d b483 b8bd 327e 7f3d
000001b0: 3fc5 353d 6310 5abd 6a2d f23b c2a5 273e
000001c0: 5549 873c 1c28 033e 3251 9a3d 0d01 253d
000001d0: 5c92 41bd 010d 5fbe 6e3c 2dbe ad94 d93d
000001e0: e986 ddbd 0d83 4b3a 2109 93bd 8fff ae3c
000001f0: 447f 2a3d 2966 b8bc 3795 e23b 3328 b1bb
00000200: 44d3 183d 8b8a cabd 8b8a 19be 5a5f e5bd
00000210: f1a0 6ebe 21b8 16be 7bcc 5abe 4a51 bc3d
00000220: 3f98 f63d 2b64 fc3d 63e8 a23e d5bd 5b3e
00000230: a6bf 393c b6b8 353e 66f9 b53d c9c7 74bd
00000240: c1c0 3d3c 5e81 44bd 507a 0cbd 8083 27bc
00000250: 5857 11bd 052c dabc bf05 5cbd 7166 72bd
00000260: 54c2 57bd 4009 debb fe84 403d eb88 a7bd
00000270: abdd 5fbb 3eff 5e3d 267e 08bd aeb0 0f3d
00000280: 786e 363d 1604 e13b d4f1 dc3c 696c 103c
00000290: 61c8 fc3c 95ca 123d 485e 05be 89b8 023d
000002a0: 2de2 073c 0d59 1dbd 7512 253d 10ef a33d
000002b0: 4604 b1bd 8470 3cbe d6ec 14be c18f 70be
000002c0: 44d9 3cbe b1db 40bd 89b5 1bbe 90a3 9fbc
000002d0: 0b52 d9bd 433f dbbd d6dc 35bd 8c2c 59be
000002e0: 8b52 27be b16e 00be 6187 f0bd 5a71 32be
000002f0: 94cd 803c 6945 d0bc 2f1c 333c 3b15 7c3c
00000300: e422 aa3d 1011 623e f2ec 763d 349c 013e
00000310: bb2a ce3d 7b2c 9a3c 3f99 1c3e fefc 093e
00000320: c47b eabd 4275 973d 3582 543d 3b15 853d
00000330: 64b5 bf3b 33d3 0d3e 054b b63d 51e2 0fbb
00000340: 0811 a7bd 7755 0ebc 9bf4 9bbd 8ab2 91bc
00000350: 7e52 433c 0a59 1aba f1e5 cb3c 292c 923d
00000360: 7812 fa3a aaff 963d 0408 e13d cf1b a53d
00000370: 6840 ea3d ab88 373d 533b 1e3b 5982 4a3d
00000380: 287b c83b d236 073d fc93 0e3d 8d22 923d
00000390: a581 b1bd 6fd2 793c 282c d0bc 34d8 1cbe
000003a0: e877 6e3c c094 4b3d d601 a9bc 9eb3 083e
000003b0: 4486 763d 3578 1ebd a608 303d a272 c1bd
000003c0: 7a45 aa3d f436 953d 8c79 0dbe 14a5 e13c
000003d0: ed50 e73d 9e43 f83c 45ac a23e caef 7f3e
000003e0: 0f8c 033d 8ef2 f03d c82e 11bd 6d6e 50be
000003f0: 7488 0cbe 7807 85bd 6155 bb3d 27dd febb
-0.02571694 0.051571965 -0.01230401 0.096517324 0.0019679167 -0.06502841 0.09485514 0.053102467
-0.1459737 0.009825508 -0.02268545 0.0696629 -0.03283438 -0.045573127 0.064527005 0.046387486
-0.073802345 0.005498658 -0.1699941 -0.1920257 -0.043694507 -0.21378036 -0.1598319 -0.043324262
-0.16372465 -0.12170668 0.021174911 -0.03642117 -0.12683293 -0.004644884 -0.069648206 -4.3586115e-05
0.05656616 -0.09834785 0.021145906 0.0075325994 0.028229121 -0.12908041 -0.10749504 -0.006422437
-0.12577578 -0.21166717 -0.0031703548 0.0021900265 -0.053228747 0.16837932 0.28751323 0.110503025
0.11738439 0.29254505 0.011284073 0.0731931 0.10456381 0.009625671 0.27694038 0.035037987
-0.03254503 0.062201 -0.025977815 0.03321506 0.11192417 0.043574255 -0.112026595 -0.04472411
0.13252625 0.15391354 0.18383755 0.06490402 0.21869086 0.033382088 0.030942846 0.065356135
0.1325934 -0.0137647055 -0.048346583 0.042715676 0.0023689277 -0.15819882 0.055096667 -0.00015856489
-0.13567585 0.006475569 0.0122807855 -0.17637514 -0.07359918 0.023453474 0.100681074 -0.062308192
0.1387512 0.02623294 -0.005896374 -0.0059569837 -0.21750465 0.18567123 0.030614976 -0.26923066
0.020111702 -0.05071746 -0.14843641 0.20651853 0.16297391 -0.06540523 0.09033209 0.12324763
-0.13831705 0.06376483 -0.090094954 0.06237621 0.04437756 -0.053238284 0.0073906677 0.16371825
0.01651446 0.1280827 0.07535018 0.040284205 -0.04725872 -0.21782304 -0.16917583 0.10624061
-0.10816748 0.00077633635 -0.071794756 0.021362094 0.041625276 -0.022509651 0.0069147605 -0.0054064034
0.037310854 -0.09889706 -0.14994256 -0.111998275 -0.23303582 -0.14718677 -0.21367066 0.09195192
0.120407574 0.12323793 0.31817922 0.21459134 0.011337196 0.17746243 0.088854596 -0.059760842
0.011581601 -0.047974937 -0.034296334 -0.010224223 -0.035483688 -0.026632318 -0.053716417 -0.059179727
-0.05267556 -0.006776005 0.04700183 -0.08180412 -0.0034159224 0.054442637 -0.03332343 0.035080604
0.044538945 0.006866942 0.026970781 0.0088149095 0.030857267 0.03583773 -0.13024247 0.031914268
0.008293671 -0.038415004 0.040300805 0.08004582 -0.08643393 -0.18402296 -0.1454347 -0.23492338
-0.18442255 -0.047084514 -0.15205969 -0.019487172 -0.106113516 -0.107054256 -0.04440006 -0.212084
-0.16340081 -0.12542225 -0.117445715 -0.17426053 0.015723027 -0.025423722 0.010932012 0.015385921
0.08307436 0.22076821 0.060284562 0.12657243 0.10066744 0.018820038 0.15292834 0.13475415
-0.11449388 0.07395412 0.051881988 0.0649819 0.005850481 0.13850097 0.089010276 -0.0021954963
-0.08157545 -0.008687369 -0.07615014 -0.01778533 0.011921523 -0.00058879016 0.024889918 0.07137329
0.001907899 0.07372983 0.10987857 0.08061945 0.11438066 0.04480807 0.0024144247 0.049440715
0.006118197 0.033011265 0.034809098 0.07135496 -0.08667306 0.015247925 -0.02541168 -0.1531685
0.014554955 0.049702406 -0.020630758 0.13349769 0.06018664 -0.038688857 0.042976998 -0.094456926
0.08314033 0.07285872 -0.13815898 0.027544536 0.11294732 0.03030568 0.31772056 0.24993816
0.032115992 0.11765014 -0.035445005 -0.20354624 -0.13723928 -0.06495565 0.09147144 -0.0077778283

encoder.conv2.bias f4 [8]
00000000: 0127 393d dbc6 7d3d 79a2 ef3c 4aa7 143e
00000010: 8a08 2c3d 4861 bbbd 4837 c93c 28c9 263e
0.045203213 0.06195722 0.029252278 0.1451694 0.04200033 -0.09149414 0.024562493 0.16287673

encoder.conv3.weight f4 [20, 8, 7, 7]
00000000: 0951 ebbe 1941 3abe 3dd6 19bd 8b4a 08bd
00000010: 1d82 a5bd 469d c73d 51ee e7bd b344 cdbe
00000020: d5f3 973e 157b e0bd 8305 02be 1efa 1abe
00000030: de49 663a 93f7 abbd fd06 e7bb c5e9 b6bd
00000040: a623 233e 2f08 babe ce30 17be ebf4 113e
00000050: 9d9f 7e3e 23a5 39be 7488 1dbe a541 9fbe
00000060: 9a31 97bc 4ad3 bcbd 6da7 fb3e 8ac7 ed3d
00000070: 07b0 d23e b005 263d dfc3 1c3e c260 e63e
00000080: b3f9 ef3d a222 763e 9a9e 973a 3055 e53e
00000090: c40b 7f3e 8519 453e 57b4 193e bfce a43d
000000a0: 2389 b9be f9dd 40be dfbc 0fbe 8744 033d
000000b0: 99cb 9bbd 758c f63c 4fa5 d1bd e0ff b5bd
000000c0: 671a 59be 019e 92be 23ec 94be 9a92 92bd
000000d0: 1ce3 0abe a71f 9e3d 7e07 833a 55b9 0a3f
000000e0: fdbe 023e ccd8 64be 2945 d5bb acd0 28be
000000f0: 793f 55be b675 a9bd 68b0 8fbe b940 0dbe
00000100: 9450 07be c889 99be ed6b 38be 8f54 133d
00000110: f2d3 9f3e 0467 f53e 3e4d bc3d 217a a23e
00000120: 5a85 c9bd f097 833e 68a0 9c3e 5f93 873e
00000130: 16a0 f03e b361 2abe 3de5 d53c aabb d43e
00000140: 305f 7fbc b7af 97bd 013c 013d 29aa 97be
00000150: 180c 553e 2922 0ebe fc40 36bc 8876 85be
00000160: c101 1ebe a7ea cdbd 97df b7bd 79bd 7abd
00000170: 3bf7 c53d b533 823b 8122 d93d 9c8e 99bd
00000180: bab8 b2be 9fdd 44bf e151 0c3f 3676 22be
00000190: 9e31 ddbc 0e66 603d 523d 95bd ab6c 77be
000001a0: a61c 53bc ab08 64be 4579 b13b 452c efba
000001b0: b724 dcbd 5cb9 cabd 78cf 99be 7ba9 88bd
000001c0: 9031 12be 2670 fe3c b499 65be f136 243e
000001d0: 59bf e33d 5186 b73e e4f2 ac3c 3f95 0ebe
000001e0: 0f68 8ebd 03e9 893e d083 1e3f 8f01 b4bc
000001f0: b316 ef3e b9d0 a4be 5f79 623e c137 d2bd
00000200: dff3 733e efbf d0be 5d0f 113e 30f6 f8be
00000210: f2f9 8a3d c12a aa3d c5a4 12be 6d05 92be
00000220: 7c89 a23d 3f72 38be b6e8 03be 0e82 0cbe
00000230: 2623 923e 479a d6b9 7a4d a6bc 45ba 1ebe
00000240: 859e f43d d370 9c3e da02 1b3d 701c b23e
00000250: bc5f 083e e708 2cbd c382 ebbd 94e0 f1bd
00000260: a276 30bd 01e5 90be 431a a83d bad6 4bbb
00000270: 8e44 d3bd f6d8 4abc b30b abbc e638 3dbe
00000280: 65c9 0d3d deae c4bd 5d03 cd3d 2ec1 48be
00000290: 34ae 543e cf94 c23e f550 c43e 158c 273f
000002a0: 5523 573d 0a12 a7bd c619 253e 5398 1a3e
000002b0: 71e1 d73d 7da2 d23e df54 903e 7d39 7938
000002c0: ffa9 08be bcc5 08be 001c c53c fc84 413e
000002d0: 5d10 d7be 35fb bbbe 495c 58be 06b3 643b
000002e0: e419 663d 20fb 7a3c 4c70 4bbe 2ad9 b33d
000002f0: da1e 073d f9b7 4fbb 598b 6f3d 60c0 2e3e
00000300: c687 733d 3b46 d53c a5a0 a8be 8a52 88bd
00000310: e69f f9bd b3bf bebd ab54 d73e 0bf7 dabd
00000320: 723b 70be 09b9 84be a453 1dbe 047e 76be
00000330: 73ec bcbd 62dc dabd a800 b43d 0f4e 43be
00000340: ac99 1b3e 9a10 143f 521a 033f 8e85 113e
00000350: fd46 d63d d047 6fbe d498 da3c 7817 403e
00000360: 10ea 65bf 16a1 043e e4c4 6dbe 371b 0abe
00000370: ff3c 503e 1c78 163f 5f12 d03e 3b01 cabd
00000380: 3742 cbbe bfbd 5c3d 1786 4cbd 1546 e1bc
00000390: de0a dfbe 664e 5d3e ae8b 1f3f aeb4 fc3d
000003a0: 6b5e 38be b150 88bd 9a5e 86bd 895b 7bbe
000003b0: 51e8 afbd eb3f e2bd 935e 08be ddae d33d
000003c0: b448 a8bd b96f 90b8 9b8e d13b 37c6 283e
000003d0: ec58 b63d 341c 9a3c bf6d 14bc 61ff 7dbd
000003e0: b6e2 143d a4e6 5abc 1c4c 37bc 614b e1bc
000003f0: b319 973d 5424 6c3d b81f d93c d5db 783b
-0.45960262 -0.18188895 -0.03755783 -0.033274215 -0.08081458 0.097467944 -0.11324752 -0.40091476
0.29678217 -0.10960976 -0.12697415 -0.15134475 0.0008784811 -0.083968304 -0.0070503936 -0.08931307
0.15931568 -0.3633437 -0.14764711 0.14253585 0.24865575 -0.18129401 -0.15384084 -0.3110477
-0.018456269 -0.09219988 0.49151173 0.11610325 0.41149923 0.040532768 0.15309094 0.44995695
0.11717548 0.24036649 0.0011567653 0.44791555 0.24906832 0.19248016 0.150102 0.08047246
-0.3623744 -0.18834676 -0.14036892 0.032047775 -0.076071925 0.030096272 -0.10236608 -0.08886695
-0.21201478 -0.28636172 -0.29086408 -0.07156868 -0.13563198 0.07720881 0.000999674 0.54189044
0.12768169 -0.22348326 -0.0065084887 -0.16485852 -0.20824994 -0.08274405 -0.28064275 -0.13794221
-0.13214332 -0.2998793 -0.1800992 0.035969313 0.3121639 0.47930157 0.0919442 0.31733802
-0.09839888 0.25701857 0.3059113 0.26479623 0.46997136 -0.16638832 0.026110286 0.41549426
-0.015586659 -0.07406562 0.031551365 -0.2962201 0.20805395 -0.13880219 -0.011123892 -0.26066995
-0.15430357 -0.10054522 -0.08978193 -0.06121585 0.09666296 0.003973449 0.10602284 -0.07497904
-0.3490656 -0.76900667 0.5481244 -0.15865406 -0.027001198 0.054784827 -0.072870865 -0.24162547
-0.012885248 -0.22268932 0.005416068 -0.0018247446 -0.1074919 -0.09898636 -0.300411 -0.06672951
-0.14276719 0.031059336 -0.22421914 0.16036583 0.11120481 0.35844663 0.021111913 -0.1392412
-0.06953441 0.26935586 0.6191988 -0.0219734 0.46697006 -0.32190493 0.22116612 -0.102645405
0.23823498 -0.40771434 0.14166017 -0.48625326 0.067859545 0.08308936 -0.14320667 -0.28519765
0.07936379 -0.18012331 -0.12881741 -0.13721487 0.2854244 -0.00040932206 -0.020300616 -0.15500744
0.11944298 0.30554828 0.037844516 0.3478732 0.1331777 -0.042000677 -0.1149955 -0.11810413
-0.043081887 -0.28299716 0.08208134 -0.0031103329 -0.1031581 -0.012380829 -0.020879602 -0.18478736
0.034615893 -0.09603666 0.10010407 -0.19604942 0.20769578 0.38004157 0.38343015 0.65448123
0.05252393 -0.081577376 0.16123113 0.1509717 0.105410464 0.41139594 0.28189752 5.9419766e-05
-0.13346098 -0.1335668 0.024061203 0.18898386 -0.42004672 -0.36715093 -0.21128954 0.0034896745
0.056177035 0.015318662 -0.19867057 0.08781655 0.032988407 -0.003169535 0.0584825 0.17065573
0.059455656 0.026034465 -0.32935062 -0.06656368 -0.12188701 -0.093139075 0.42056784 -0.10691651
-0.23460177 -0.2592242 -0.15363938 -0.24071509 -0.092247866 -0.10686566 0.08789188 -0.19072746
0.1519534 0.5783783 0.51212037 0.14211103 0.10462759 -0.23367238 0.026684202 0.18758953
-0.89810276 0.12952074 -0.23219639 -0.13486944 0.20335768 0.5877702 0.40639016 -0.09863516
-0.39698955 0.053891893 -0.049932566 -0.027499238 -0.43562979 0.21611938 0.6232251 0.123391494
-0.18004768 -0.06656016 -0.065610126 -0.24546637 -0.08589233 -0.11047348 -0.13317327 0.10336087
-0.08216992 -6.887265e-05 0.0063951737 0.16481863 0.08903679 0.018812276 -0.009059369 -0.062011126
0.03634902 -0.013360653 -0.0111875795 -0.027501764 0.073779486 0.057651833 0.026504382 0.0037972827

encoder.conv3.bias f4 [20]
00000000: 656d 05bf cedf 01bf dc43 eebe 3a1e d9be
00000010: 5575 4fbf 02c9 51be 3796 3f3f fb93 c83e
00000020: d062 11bf bf99 b83e f152 293c ea93 15bf
00000030: b7c6 ab3e 90e5 083f 4291 77be be5c d83e
00000040: 5906 efbe 5f3c a93e c9f9 08bf b547 b7be
-0.5212005 -0.50732124 -0.46536148 -0.42405874 -0.8103841 -0.20486835 0.74838585 0.391754
-0.567914 0.360548 0.010334716 -0.58428824 0.33550045 0.53475285 -0.24176505 0.42258257
-0.4668453 0.33053872 -0.5350614 -0.35796896

decoder.fc.weight f4 [6272, 20]
00000000: 6077 eabd 8d61 77bc 8a8d 073e 8a5b 67be
00000010: 53bb 9f3e 6adf 3e3e 5861 8a3e 743a e3bc
00000020: 82af b73d d17f 293c 7c3c f53d fe8f 0cbe
00000030: 9b58 8a3e 0b32 7abd 2d54 4abd 2125 ba3e
00000040: 433d 7a3e bd60 01be cf06 433f 6f8d 873e
00000050: 6800 80be c9ba d43d 8c49 cd3d 2ba3 43bf
00000060: 653f f03e 4a8f c4bd 423d 623f a6f8 6d3f
00000070: 8dc9 a8be b636 50bd 8e42 773e 9a9f cd3d
00000080: 5b6d 23bf 07ed a7bf 18d9 f4bd 26d7 ee3e
00000090: 81c3 873f c979 623c 1046 37bf c8a0 2cbe
000000a0: ba00 bd3e 919e c6bd 3025 b7be 710b febb
000000b0: 1362 5c3e f318 82be 50d2 973e b3fe 18be
000000c0: 2320 1c3e 0cf5 5f3e 548d 16bf 0888 e1be
000000d0: a3f9 42bf d233 7fbf 020a 3bbd 6bde 373f
000000e0: 9006 c0be b288 92be ab16 05be 7cce 55be
000000f0: b70a 583f 4727 b739 ec4a 66be ca17 513e
00000100: 37e1 2fbf b077 19bd 7ecd 8dbe 1e46 443f
00000110: 8dce 8d3b 78f3 90bc 1455 0bbf d13a 1dbe
00000120: 093f 12bf 4abb 25bc 4e8a 9abd a9a9 6bbe
00000130: a9a7 79bf 306c c53e 2cb8 9d3d d573 073f
00000140: cd58 09bf 0eca 793c 5cc6 bf3e 6339 533e
00000150: 3b43 eb3d 0c08 b43d 2772 90bf f7ad 1dbe
00000160: a536 933e a7fb 103f e239 133e cbeb 303c
00000170: cf07 553f d603 ebbd 8f58 c3bd ea1a 59bb
00000180: 3a54 43bf 3ab3 48bd 7e8b edbd 6d31 523f
00000190: 0114 1e3f 11e1 36bb 6e07 6e3e 985c 463f
000001a0: e602 343f fdbb d23d 03e9 33bf 66fa 223e
000001b0: b297 7a3d 9e4e 1d3c c5f3 793e 873a fbbc
000001c0: 4a79 953e b159 6fbe f058 33be a5c0 fe3e
000001d0: c7b8 d5be f043 67bd eef3 a9bf 28ec 21bc
000001e0: 1a1f 973d ca7d c8bd f355 0ebe 071a c9be
000001f0: b475 04bf 9cec a93d 5045 c4bc d788 81ba
00000200: e72d 95bd f5c2 31bf 25f5 1cbf 5bea 3c3d
00000210: 82cb 603e 9174 4d3e 56fb 343e d619 0c3e
00000220: 0de7 22bf d591 533e 013b f2be 5266 08bf
00000230: f743 173f 24a3 6b3c 66e4 02bf 5015 34be
00000240: 7e99 313f 41bd 623e 2e68 7dbe 1dcf 2a3f
00000250: 4806 3f3d 8b74 373e fd28 b5be 5ff1 4abe
00000260: 0d34 c2be 5542 283d 16b5 d6bd 93e2 ef3e
00000270: b94e 6abe 661e 67bc 3867 0cbf 0fce 0abf
00000280: 858c 333e 2ebe 16bd eb30 a1be 62b5 1f3e
00000290: e5ca ac3c e151 873d 3200 c63e 879d f33e
000002a0: 785b b3bd 0771 a53e c11b 5d3e ac60 0cbe
000002b0: 7a70 0ebe da66 303f ed7b fd3d 377b 14bf
000002c0: 0d69 553e 4997 df3d d31a 95bd 0d8e 14bf
000002d0: 1471 9a3e 2285 afbc 7288 bebe 053d aabd
000002e0: 8312 a13e d7f0 b53d 40b4 a03e 876f 2abe
000002f0: 201a 303d 3e9e ea3e f0df dc3d 96a1 be3d
00000300: 2a4d 32be e61c a63e 4e94 e03d dfc0 1f3e
00000310: 298d ef3c a820 a93b 665b 31bf 1f67 6abd
00000320: ff5d 943f cc6c 12bd 3373 cabd 8986 a5bd
00000330: 2670 34be 05fa 363b 9fee 54be 4d6b 32bf
00000340: b1a1 043e 9951 87be baba 0abf 096e b0be
00000350: 716e d63d 318a bcbd e8af 133e d824 f73e
00000360: a640 193f 3164 8fbd d63a dabe 8bb9 0c3e
00000370: 94e9 e73d ff15 85bd 8d47 8c3c 7aea 853e
00000380: 31b9 93bd cfe1 5bbd 3638 8bbd 8706 843e
00000390: c0d7 4e3d ee5c aa3e 3476 d33e fe73 c63e
000003a0: 8698 c53e f2ff 853e 3b6f cf3b 99be 32be
000003b0: a566 72be 2ea4 203d d062 7bbe 0e84 c3be
000003c0: a5fe 543f 389a 613d 1cdb 7ebe e888 1bbe
000003d0: 63b7 ccbd 8e30 ed3c 6867 953e 2b95 173d
000003e0: 54ba 603c 6865 89bd 5d3b bfbe a6e9 903d
000003f0: 771e 513f b912 edbc 25f4 843d fb85 06bf
-0.1144855 -0.0150989415 0.13237587 -0.22593513 0.31197605 0.18639913 0.27027392 -0.027737834
0.08969022 0.010345415 0.11974427 -0.13726804 0.27020726 -0.06108288 -0.049396683 0.36356452
0.24437432 -0.12634559 0.76182264 0.26475093 -0.2500031 0.10387189 0.100237936 -0.7642085
0.46923366 -0.09597643 0.8837472 0.9295753 -0.3296627 -0.050833426 0.24146482 0.10040207
-0.6383874 -1.311921 -0.1195547 0.4664852 1.0606538 0.013822981 -0.7159128 -0.16858208
0.36914617 -0.09698213 -0.3577056 -0.0077528288 0.21521787 -0.2540966 0.29652643 -0.1494091
0.15246634 0.21870822 -0.588094 -0.44049096 -0.76162165 -0.99688447 -0.04566384 0.7182376
-0.37505007 -0.28619915 -0.12996928 -0.20879549 0.8439135 0.00034933744 -0.22489518 0.20419231
-0.68703026 -0.03746766 -0.2769584 0.7666949 0.0043276013 -0.01769422 -0.54426694 -0.15354468
-0.57127434 -0.010115454 -0.07545911 -0.23013939 -0.97521454 0.38559103 0.077011436 0.5291112
-0.53651124 0.0152459275 0.37456024 0.2062736 0.114874326 0.08790597 -1.1284837 -0.15398394
0.28752628 0.5663399 0.1437755 0.010798405 0.8321504 -0.11475341 -0.095383756 -0.0033127614
-0.76300395 -0.04899905 -0.11598872 0.8210667 0.61749274 -0.0027905146 0.23245022 0.77485037
0.7031692 0.10289762 -0.7027742 0.15915832 0.061179824 0.009601263 0.24409397 -0.030667556
0.291941 -0.23374058 -0.17514396 0.4975635 -0.41742536 -0.056461275 -1.3277566 -0.009882964
0.07378979 -0.09789617 -0.13899975 -0.3927767 -0.517421 0.08297083 -0.023958832 -0.00098827
-0.07284146 -0.69438106 -0.6131156 0.046121936 0.21952632 0.20063998 0.17674002 0.1368173
-0.63633806 0.206611 -0.4731064 -0.5328113 0.5908808 0.0143821575 -0.5112976 -0.17586255
0.69374835 0.22142507 -0.24746773 0.6672228 0.04663685 0.17915551 -0.35382834 -0.19818638
-0.37930337 0.041078884 -0.10483758 0.4685255 -0.22881593 -0.014106369 -0.54845 -0.5422067
0.17534073 -0.036802463 -0.31482634 0.15596536 0.021092841 0.06607414 0.38672024 0.4758112
-0.08757681 0.32312796 0.21592619 -0.13708752 -0.13910094 0.6890694 0.123771526 -0.5800051
0.20840855 0.10917527 -0.07280507 -0.5802925 0.30164397 -0.021425787 -0.37213475 -0.0831242
0.31459436 0.08883827 0.3138752 -0.16644107 0.042993665 0.45823854 0.107849 0.09308164
-0.17412248 0.32443923 0.10965787 0.15600918 0.029242115 0.0051613636 -0.6928009 -0.05722725
1.1591185 -0.035748288 -0.09885254 -0.08082301 -0.17620906 0.002792002 -0.20794152 -0.6969498
0.12952305 -0.26429442 -0.5419117 -0.3445895 0.10470284 -0.092060454 0.14422572 0.48270297
0.5986427 -0.07001532 -0.42623013 0.13742654 0.11323848 -0.06498336 0.017123962 0.26155454
-0.07213057 -0.053682145 -0.06797831 0.2578623 0.050498724 0.33274025 0.4130112 0.3876037
0.3859293 0.26171833 0.0063303984 -0.1745552 -0.23671968 0.039219074 -0.24549413 -0.38186687
0.83201057 0.055078715 -0.24888271 -0.15188944 -0.09995916 0.028953817 0.29180455 0.037007492
0.013716299 -0.06708795 -0.37349978 0.07075815 0.8168711 -0.028939592 0.064918794 -0.5254819

decoder.fc.bias f4 [6272]
00000000: 761c adbf ff73 7abf 8217 02bf dec8 27bf
00000010: 6a76 a1bf db2b 17bf 49a7 ecbe 459c 67bf
00000020: c4cd b3bf 0988 b1bf 887f b9bf 301c d2bf
00000030: 462d c1bf fae4 dbbf 4005 ebbf 9205 babf
00000040: 8c0d 8dbf 441a c7bf ff8c 98bf cebe f7bf
00000050: 90fc c5bf b8a4 c3bf 889c 95bf 2004 8fbf
00000060: 4d11 8cbe 8818 9fbd 27f8 babd ce62 d1be
00000070: 8bef debf 7ffc 24bf 57db fabe c41c edbe
00000080: f674 7bbd 08cd 53bf 617d dcbe bb8d 5cbf
00000090: bc3b 41bf 45b7 28bf 884c fdbe 67eb 9ebf
000000a0: 16d0 87bf 02a4 18bf 39bc a9bf 2981 19c0
000000b0: c2e1 19c0 8f66 c4bf 9ab8 e9bf 978d 6bbf
000000c0: ad32 80bf 8229 75bf 1195 31bf deff 0dbf
000000d0: 2727 64be 226b 14bf 995f 58bf 583e 69bf
000000e0: 8962 98bf 08d8 0cbf 5f06 a4bd c8ff 18bf
000000f0: f82c bfbe da99 5ebe 057f b1be 1f41 27bf
00000100: 6736 703d 3f2f f9be 0031 5abe c707 b7bf
00000110: 55f5 8fbf 77b4 c8be 9089 7ebf 1f39 91bf
00000120: c2d6 0abf ac97 d6bf 2e6c 16bf 4b8e e4be
00000130: d3bc 43be 85d6 33bf 2f4e 5dbf b8c7 66be
00000140: cb9e 36bf ba97 3abe 45dc 38bf bfa8 5cbf
00000150: 9e99 2bbf 713a 07bf 8e48 34bf b0f6 30bf
00000160: e7d3 67bf 8a58 203e 55bc a9be c6fe 2ebf
00000170: 60ac 10bf 5642 3fbf 6ef2 59bf f272 65bf
00000180: fd7c 0ebd e4de 55be 8b76 bc3e 4c8d 62bc
00000190: 48a3 573f f921 8b3d af30 27bf 21e7 a1be
000001a0: 9841 50bf d055 20bf 73a5 72bf 4bb1 f2be
000001b0: b898 2dbf 9bf0 40bf e97d 35bf 2e97 21bf
000001c0: 87f1 43bf c507 87be 938f 87be 2ecb 2abf
000001d0: 8206 963b d97a 9ebe 842d 1abf fbdd 96be
000001e0: 8a0b 7ebf c2aa 64bf a833 68bf 3902 f0be
000001f0: 762a 453d 7c14 113e bb35 453f 221b 9e3e
00000200: 6c92 cb3e af4e 243f ef21 033f 5bb7 a4be
00000210: 6d82 02bf 203d 61bf b1d0 74bf 9c44 26bf
00000220: ba05 10bf 738a 01bf 4adf 08bf 328d 14bf
00000230: 834b 6dbf f96a 3d3e 97df 07bf 0bec 91bd
00000240: ac25 64bf 6be4 94be ce7f 1dbf 3cd9 1bbf
00000250: e601 3dbf 8ce1 1fbe 1fe2 6eba f73d 6a3f
00000260: c6cc 323e ab56 523f 2440 a13f 5ea0 6b3f
00000270: b7fe 4b3f 9d64 3a3e a8be 993f 9e94 e33e
00000280: 37f4 e03e eaee c2be 97ef 44bf 7976 7dbe
00000290: 4e14 13be f209 70be 3807 e9be 6ec5 aabe
000002a0: b281 31bf a23a 2dbd f355 24be a2dc afbd
000002b0: 9718 adbe d8b4 94be e85f 3bbf 79e8 153e
000002c0: af30 58bf ad83 a43e fefd 893f d95a 3d3f
000002d0: ec6c 583f 8687 803e 2476 8e3f 1b78 013e
000002e0: 59d8 f73e 03e4 3f3f 9864 833f 76c3 dd3f
000002f0: a067 3d3f 5653 cd3e 219c 99be 74a9 d9be
00000300: f941 f5be eed1 3e3e fa6f 673c 07c8 e43d
00000310: 33b6 dbbe 2b4c abbd 4508 a23c eb14 85be
00000320: cc3f d5be caa4 57bf 3f1b 23bf c682 103f
00000330: d40e dfbe afe8 003f 0cce 663f c302 9b3f
00000340: 48f9 643f 17a0 c83e ae3b 9b3e 5b5d 713f
00000350: 5d41 af3c 61f7 1a3f 55f4 933f fad2 a33f
00000360: eecb ba3f a696 3a3f a735 843e d622 e7bc
00000370: 5b71 a3be 17f8 debd 0bb3 303f c482 d6be
00000380: 6da2 16bf c3ab 28bf 0475 17be d0cd 78bf
00000390: 007d 86bd f45b a7bd 1beb 493f 52ed 8a3d
000003a0: 8d10 6b3f 7a8a 8e3f f447 a03f 7d8c 9d3f
000003b0: 50c3 393f 9fe1 793e 8a80 483e 7d9a ca3e
000003c0: 9df0 a4bd 006a b63e 7a02 f03f edb1 e33f
000003d0: 608c 473f 2c1c 9c3f f368 003f 16c0 aebd
000003e0: bbe9 0abf 74d3 1c3e 9a83 0e3f b385 8cbd
000003f0: f005 27bf 1669 a83e 404e a83e 319b 6ebd
-1.352431 -0.97833246 -0.5081712 -0.65540874 -1.2614262 -0.59051293 -0.46221378 -0.90472823
-1.404717 -1.386964 -1.4492044 -1.6414852 -1.5091941 -1.7179253 -1.8360977 -1.453295
-1.1019759 -1.5554891 -1.1918029 -1.9355104 -1.5467701 -1.5284643 -1.1688395 -1.1173134
-0.2735695 -0.07768351 -0.091293626 -0.40895694 -1.7416853 -0.6444778 -0.48995468 -0.4631101
-0.06139084 -0.8273473 -0.43064407 -0.86153764 -0.7548177 -0.6590465 -0.4947245 -1.2415589
-1.0610378 -0.59625256 -1.3260566 -2.3985083 -2.4044042 -1.5343798 -1.8259461 -0.92012924
-1.0015465 -0.9576646 -0.6936808 -0.5546855 -0.2228056 -0.5797597 -0.8452087 -0.91110754
-1.190507 -0.5501714 -0.08009028 -0.5976529 -0.37338996 -0.21738377 -0.3466722 -0.6533374
0.058645632 -0.48668858 -0.21307755 -1.4299248 -1.1246744 -0.39200184 -0.99428654 -1.1345557
-0.54233944 -1.6765037 -0.5875882 -0.4463981 -0.19115 -0.70249206 -0.86447424 -0.22537124
-0.7133605 -0.18221942 -0.72211105 -0.86194986 -0.67031276 -0.5282355 -0.7042321 -0.69126415
-0.9055771 0.15658775 -0.33151498 -0.68357503 -0.56513023 -0.74710596 -0.85135543 -0.8962852
-0.034787167 -0.20885807 0.3680919 -0.013827633 0.8423352 0.06793589 -0.6530866 -0.3162165
-0.8135009 -0.6263094 -0.94783705 -0.4740089 -0.67811155 -0.75367135 -0.7089525 -0.63121307
-0.76540416 -0.26373115 -0.26476726 -0.6671628 0.0045784125 -0.309531 -0.602257 -0.29466233
-0.9923636 -0.89323056 -0.9070382 -0.46876696 0.048136197 0.1416797 0.7703511 0.30880076
0.3976015 0.6418256 0.51223654 -0.3217114 -0.50980264 -0.87983894 -0.9563094 -0.6494844
-0.5625874 -0.5060188 -0.5346571 -0.58027947 -0.92693347 0.18497838 -0.53075546 -0.071251
-0.8911998 -0.2908052 -0.6152314 -0.6087835 -0.7383102 -0.15613383 -0.0009112674 0.915008
0.17460927 0.82163495 1.2597699 0.92041576 0.7968554 0.18202443 1.2011309 0.44449323
0.4393632 -0.38072902 -0.76928085 -0.24752225 -0.14363214 -0.23441294 -0.4551332 -0.33353752
-0.69338524 -0.042292245 -0.16048412 -0.08587004 -0.33807823 -0.29044223 -0.73193216 0.14639463
-0.84449285 0.3213171 1.0780637 0.7396675 0.845412 0.25103396 1.1129804 0.12643473
0.48407248 0.74957293 1.0265074 1.7325275 0.73986244 0.40102643 -0.3000193 -0.42512095
-0.47901896 0.1863477 0.014125818 0.11170965 -0.42912444 -0.08364137 0.019779334 -0.25992522
-0.41650236 -0.84235823 -0.6371345 0.56449544 -0.43566 0.50355047 0.9015815 1.2110218
0.89442873 0.3918464 0.3031897 0.94283074 0.021393472 0.6053372 1.1558939 1.279876
1.4593484 0.7288612 0.25822183 -0.028214853 -0.3192242 -0.10887163 0.690232 -0.4189664
-0.5884159 -0.6588709 -0.14790732 -0.97189045 -0.065668106 -0.081718355 0.7887437 0.067835465
0.9182213 1.113601 1.2521958 1.2308499 0.7256365 0.24402474 0.19580284 0.3957099
-0.08053706 0.35627747 1.8750756 1.7788674 0.7794857 1.2196097 0.5016014 -0.08532731
-0.54262894 0.15315038 0.5566956 -0.068614386 -0.65243435 0.32892674 0.328722 -0.05825347

decoder.conv1.weight f4 [16, 8, 3, 3]
00000000: 21ec 053d 7eac 9fbe 6f79 983e a63b 94be
00000010: e251 b3be 7d53 26be e41b cebe 9ebd 75be
00000020: 6619 81be f4d0 92be 7714 1e3f 6646 93be
00000030: c1f0 ccbe 4be9 2cbe 6c98 313b 69fd 3c3c
00000040: 8c99 153e 1fc3 1a3e 3bd8 ab3e 0881 6ebd
00000050: e203 aa3e 3fec 2bbe 3735 07bf f6e0 01bf
00000060: 3e98 163d 151e b43d a5d9 88bc f8d8 13be
00000070: e536 953e 564a cabe c763 11bd ff69 873e
00000080: 288b 333e 6954 85be 1c2a fd3d 8e34 3cbc
00000090: 9e19 1c3c 8da4 94be 8379 ba3e 3c03 083f
000000a0: c74f f9bd 4e0d 5abd 0b69 193e 8b01 543d
000000b0: 5691 6ebd f13c ff3d afb2 1b3f 7331 c23e
000000c0: 49b3 0bbe 82bb 303e 0ace 9fbd af7a 40be
000000d0: 2859 d8bd fa88 e43e 6c23 203f e39d a53d
000000e0: 7877 453e 1867 853c e7aa 11be 38ce 043c
000000f0: 9b5e 293d eaea 67ba f273 913d a96a a2bd
00000100: 503f beba 5330 34bd 5876 2b3d 9869 023e
00000110: 6702 89be daed 3cbe e02f 9b3d 8426 05bd
00000120: fcc4 ea3d 7efc 93be 97e7 4abd b0d2 0c3e
00000130: 0c8c 523e c4de c4be ecd2 e7be 5837 afbe
00000140: 8bc4 2bbd 416c 0cbe 583c c1bb 8c74 2bbe
00000150: 8fca b63e c9cc aabd 287e 3d3e b810 a43d
00000160: e83b 3cbe fefa 6d3e 1483 3a3e ca43 793d
00000170: 8ea4 093e 5aea 803b 9618 81bc 607d 8b3e
00000180: 50b0 d5be dc0a 7bbc c244 dbbd c64d c63c
00000190: 663c 07bf 57d7 33bf 47c0 0cbf bcdf 97be
000001a0: 07c6 01be 8792 23be e64e 323e b67f 6abd
000001b0: 967e 4ebe 9b1e 4bbd 55cc d7bc a051 e43e
000001c0: 5edc c5bd 1d66 ab3e bfc1 f43e ae2a 073e
000001d0: ae63 a4ba 0472 73bc b80c 2c3e feae 5cbe
000001e0: a672 a8be 8101 1ebe 436a 85bd 71e9 6d3e
000001f0: 2768 a83e 0728 d13d e847 cdbe cc1a ddbd
00000200: 9f19 8ebe 2fc5 553e 1415 98be 5693 e53d
00000210: 81e8 bdbd 94fa ac3d 9291 6abe d6b9 943d
00000220: 20ff e43d 3366 f33e c2da bfbe b410 29bc
00000230: 5670 66bd 1a1e 523e 531d 35bd 0298 8cbd
00000240: 43ff 1a3d 3cf4 cfbc a45b 4b3d 5b4f 033e
00000250: 986d 0e3e 43d3 203e ebcb 8e3d f052 0d3d
00000260: 8e6d 863e 7cfe 52be 6914 d1be c86d b3be
00000270: 56c0 a3bd 05c0 98be 7314 8ebe ada2 14be
00000280: 122d a4be 6148 46be 82a0 b1ba 04a5 1a3d
00000290: 3862 623c 3f4e 3f3e d561 253e 1b1f 66bd
000002a0: c1ca 68bd a826 f7bd 7633 8dbc 71c2 6d3c
000002b0: 3f6f a4be 81f8 c1be 86d6 3abe 878d 96be
000002c0: 7e02 8ebe 0a40 4bbe 97d8 efbe 5b4f e3be
000002d0: 9600 663e 941d 733e 945c 503e 4777 263e
000002e0: ad29 e23e 5cec 013f 5762 8c3e f804 113f
000002f0: 7cb5 f63e 017c ce3a ec3c c93d dc15 3f3e
00000300: 1898 2b3e f536 243e 1ba8 ec3d f19a d63c
00000310: d6f8 913e 5364 e43e f9c2 be3b 5fea 693e
00000320: 43a8 bf3d a5e5 cb3d b177 4c3e 78a7 42bd
00000330: 6f44 0f3e cafb 2f3e b6e0 7f3e 8b06 563e
00000340: dcaf 923e cf00 083e 7f86 063e 3739 593e
00000350: 1cdc 1b3e 86b1 313e cefb d53d aa08 753d
00000360: 1a2d 113e 0020 a4bc 5f14 6ebc 17f6 22be
00000370: fac3 b9be d529 0fbe af12 293d 71d8 8dbd
00000380: e892 3fbd e919 99bd 4bf8 7d3d ac8b 8dbd
00000390: e7c4 963e e9cf ff3d a605 453e 0e1b a6bd
000003a0: 530f 483e 0fa2 863e 6e52 0ebe c834 a83e
000003b0: 5ce9 623e e7c6 983d ca17 d9be 99f7 e73c
000003c0: cc83 a4bd 2514 49bd 7bac ed3c a55b 443e
000003d0: af9f 753e 7a23 e43d e915 2e3d ae98 50be
000003e0: b220 963c 80f2 4e3e 6749 40be 1fd0 c6be
000003f0: 7f45 d0bc c300 58be a523 91be ac90 ea3d
0.032695893 -0.3118629 0.29780146 -0.28951758 -0.3502341 -0.16242786 -0.40255654 -0.23998114
-0.2521469 -0.28675044 0.61749977 -0.28764647 -0.4002743 -0.16885869 0.0027098907 0.011535027
0.14609355 0.15113495 0.33563408 -0.058228523 0.33206087 -0.1678934 -0.52815574 -0.5073389
0.036766283 0.087948 -0.016705343 -0.14438236 0.29143444 -0.3950984 -0.035495546 0.26448056
0.17533553 -0.26040962 0.12361547 -0.011487139 0.009527592 -0.29031792 0.3642083 0.53129935
-0.121734194 -0.053235345 0.14981477 0.051759284 -0.058244072 0.124627955 0.60819525 0.37928352
-0.1364261 0.17259029 -0.07802971 -0.187968 -0.1056388 0.44635755 0.6255405 0.08086755
0.19283855 0.01628451 -0.1422535 0.008105807 0.04134999 -0.00088469556 0.07102193 -0.079305
-0.0014514718 -0.043991398 0.04186091 0.12735593 -0.26759645 -0.18450108 0.07577491 -0.032507434
0.11463353 -0.28903574 -0.049537268 0.13752246 0.20561236 -0.38451207 -0.45278108 -0.3422191
-0.041935485 -0.1371317 -0.005897086 -0.16743678 0.35701415 -0.08339841 0.18505156 0.08011001
-0.18382227 0.23240277 0.18214065 0.060855664 0.13441679 0.003934187 -0.015758794 0.2724409
-0.41736078 -0.015322413 -0.10706474 0.024207007 -0.52826536 -0.7025046 -0.5498089 -0.29662883
-0.12673198 -0.15973864 0.1741291 -0.0572507 -0.20165476 -0.049589735 -0.02634255 0.44593525
-0.09661172 0.33476344 0.47804067 0.13199875 -0.0012541914 -0.014858726 0.16801727 -0.21551129
-0.3289997 -0.15430261 -0.065144084 0.23233582 0.32891962 0.10212713 -0.40093923 -0.10796127
-0.27753922 0.20876001 -0.2970358 0.11209743 -0.09272862 0.084462315 -0.22907093 0.07262008
0.11181474 0.4753891 -0.37471586 -0.010318924 -0.056259476 0.20519295 -0.04421742 -0.06864931
0.037841093 -0.025385015 0.049647942 0.1282324 0.13908994 0.1570559 0.06972488 0.034502923
0.2625546 -0.2060489 -0.40835884 -0.35044694 -0.079956695 -0.29834 -0.27749977 -0.14515181
-0.32065636 -0.19363548 -0.0013551863 0.037755027 0.0138173625 0.18682192 0.16150601 -0.05618201
-0.056833986 -0.1206792 -0.017236453 0.0145116905 -0.32116124 -0.37884906 -0.18245897 -0.29404852
-0.27736276 -0.19848648 -0.46844932 -0.4439648 0.22461161 0.23741752 0.20347816 0.16256438
0.4417242 0.5075128 0.27418777 0.56648207 0.48185337 0.0015753509 0.09826073 0.18660682
0.16757238 0.1603659 0.11555501 0.026196929 0.2851016 0.4460779 0.0058215824 0.22843312
0.09358265 0.099559106 0.19967534 -0.047522992 0.13990949 0.17185894 0.24988064 0.20900933
0.28649795 0.13281558 0.13137244 0.21213232 0.15220684 0.17352876 0.104484186 0.059822716
0.14177361 -0.02003479 -0.014531224 -0.15914188 -0.3628233 -0.13980801 0.041277584 -0.069260485
-0.04677096 -0.07475645 0.06200437 -0.06911406 0.294471 0.124908276 0.19240436 -0.08110629
0.19537096 0.26295516 -0.13898632 0.3285277 0.22159332 0.074598126 -0.42400962 0.028316306
-0.08032951 -0.049091477 0.02901291 0.19175585 0.23986696 0.11139579 0.042501364 -0.20370743
0.018326137 0.20209694 -0.18778001 -0.3883066 -0.025423763 -0.2109404 -0.28347507 0.11453375

decoder.conv1.bias f4 [16]
00000000: e839 cbbe afd2 19bf 1a91 e73e febd 57bf
00000010: f469 fcbe 4134 d33e b32b dbbe caab 9ebf
00000020: a0bb 2d3f 1069 b0be 2d3b 05bf 281d 183f
00000030: ac36 633e a83e 6bbf 6eba f1bd 3854 b8bf
-0.39692616 -0.600871 0.4522789 -0.8427428 -0.49299586 0.41250804 -0.42806777 -1.2396176
0.6786442 -0.34455156 -0.5204342 0.5941949 0.22188824 -0.9189248 -0.11803137 -1.4400702

decoder.conv2.weight f4 [4, 16, 3, 3]
00000000: 027e 383e 4cc5 613e e56f 123e 9601 6b3e
00000010: bdf6 783e 43b5 5c3e 8c1f b73d 9adf 863d
00000020: 8903 2ebc 4755 2dbe b7ca 62be a504 31be
00000030: 4453 7ebe 6d39 81be 2275 a2bd bb42 09be
00000040: 9c6f c9bc 0c82 853d 550f 2c3e 20e5 dfbd
00000050: 52e0 fc3b 7e10 0abe fe85 9cbe 8288 f83d
00000060: 9066 70be bd1e 8abe f976 733e c282 89be
00000070: 7c27 adbe 6057 bbbe 41c9 bfbe 44c9 debe
00000080: 2302 dcbe a734 a3be 4af2 a3be 1aa2 a7be
00000090: 627e a33e 53fe 4e3e c4af 3a3e 4f2a 033c
000000a0: c448 9ebd d336 45be 761b 0cbe ba93 00be
000000b0: 71b2 9bbe c0e6 43bb 7bbb 0c3e 4e55 323e
000000c0: 31dd 643d a175 803e 5aea 783e f67d 283d
000000d0: 38a9 0a3e 56bb db3d 39f8 293c ff00 d1bd
000000e0: 9278 5bbe 14dc 683e 36fe 673e 1f32 b63c
000000f0: e987 833e 3b31 883e c0a1 e73d 31cf 243e
00000100: a874 3f3e ec52 3cbd 88bc 613e 42a2 033d
00000110: 6a18 8fbe 7336 d63d c1f1 abbd 8dd0 93be
00000120: 1751 633e 0452 c53d 18dd e0bd c868 b23e
00000130: cd5a 473d 2922 74be cc69 3b3e f36c 3fbd
00000140: fdaf 83be 9928 5abd b629 45bc a9e9 e4bc
00000150: d901 c83d acbc 083e e7b5 413e 0991 473e
00000160: a2cb b23e cfe4 a73e 5262 ec3d 03aa f53d
00000170: c93b 013e cc75 a53d 6214 4d3e d1e2 943e
00000180: a2df 4f3d ea37 263e d9cc 9c3e 9ae5 d43d
00000190: fca8 a03e aaca 613e 15e8 7a3c ed13 543d
000001a0: ad67 8fbc b9b8 10be 3f61 4abe 16dc 77be
000001b0: 590e 6f3d 5273 e4bb 9e68 02be a2ba 933d
000001c0: 2f96 a43a 554d 24be cb18 4b3c f4b6 b1bc
000001d0: b3e5 15be 45e4 383e 02b5 b93e 4c23 9e3e
000001e0: 3573 ba3e fe8b ca3e e7af c53e 1c63 743e
000001f0: 0932 9b3e ed75 633e 24fd f3bd da70 56be
00000200: b5f8 5abe 4fa7 2abe 5eb8 69be efdc 60be
00000210: 6eb9 fabd 4213 21be 2b2b 13be c468 bcbe
00000220: 2ebe c5bd ee61 893e eb81 04bf 316e 36bb
00000230: 1291 f13e fa7d a3be ab09 1bbc bc96 c53e
00000240: 0960 203e 77c7 4d3e adc9 2b3e de27 8c3e
00000250: 5c05 8b3e 941c 203e ff11 1e3e dcfc e53d
00000260: ee08 953d 693b b5be 0a43 babe a736 97be
00000270: ead5 cebe 45fc e4be 190b 5abe 7232 bebe
00000280: 731b 62be 891a 8dbd cd95 963c d751 debc
00000290: 18eb 3ebc 94ac dc3b 3e7f 02be 6741 c73d
000002a0: aee8 b0be 7310 62be 4776 203e 888a 8bbe
000002b0: 8fbf a1be 7e61 4fbe 3200 8dbe f63f 84be
000002c0: bf57 06be dd2d 89be 8e6a 8fbe b85b 43be
000002d0: e852 483e 7dbf be3d b109 243d a1a8 98bd
000002e0: a2d0 d0bd e418 11be 06b7 8cbe cbb9 87be
000002f0: 6862 b9bd 5923 34bc 68d1 5a3d 0e81 fa3d
00000300: 04a3 c03d 138d 753e ba10 6b3e 6744 993d
00000310: ba28 4e3e 4ecc 393e 8e98 623c b82c e4bd
00000320: b620 3bbe a9e2 a53d 3a5c 153c 17b4 1bbe
00000330: f1c7 9f3e 20b2 5f3e 2ab4 6abc f6f2 c13e
00000340: c7f1 423e 0b82 283c 128b 8d3e c066 243d
00000350: 4938 41be 2ef4 343e aa5c 52be 5b6f bbbe
00000360: 8119 113e e850 06bd 46c9 61be ff99 ef3d
00000370: 6a31 f0bd f4ee b7be 0710 eb3c fa2d 75be
00000380: b959 babe 76b7 fabd 9dea 88bd c792 85bd
00000390: 7fbd 073d 13d7 933b ab8c cebc 4053 3c3e
000003a0: ed1d 9b3e fa10 2f3e f54b 683d 85d1 0f3e
000003b0: cb94 043e 16c8 5f3e 5db7 b03e 0965 be3e
000003c0: 3cd4 453e 806a a43e 14f0 9f3e bfbf 5c3e
000003d0: e82f c43e 9dc5 8f3e 90f7 443e aaaa 783e
000003e0: 2248 2a3e a252 c8bc b38d 1dbc dabe 43bd
000003f0: e485 413d 1068 233c fb14 b5bc 01a6 9d3d
0.18016818 0.22047919 0.14300497 0.22949824 0.24312873 0.21553521 0.08941564 0.06585617
-0.01062096 -0.16927062 -0.22147642 -0.17286928 -0.24836451 -0.25239125 -0.079324976 -0.13404362
-0.024589352 0.06518945 0.16802724 -0.10932374 0.0077171708 -0.13482854 -0.30570978 0.12135412
-0.23476624 -0.26976576 0.23775853 -0.26857573 -0.33819187 -0.365901 -0.37458232 -0.43512928
-0.4297038 -0.31876108 -0.3202079 -0.3274086 0.3193236 0.20214204 0.18231112 0.008005693
-0.07728723 -0.19259195 -0.1368235 -0.12556353 -0.30409577 -0.0029892176 0.13743393 0.17415354
0.055875007 0.25089744 0.24308148 0.04113575 0.13541114 0.10729091 0.010374122 -0.10205268
-0.21432713 0.22740203 0.22655568 0.022240696 0.2568963 0.2660006 0.11310148 0.16094662
0.18696845 -0.045977518 0.22044575 0.032137163 -0.27948314 0.10459604 -0.0839572 -0.2887005
0.22198902 0.09634784 -0.1097967 0.34845567 0.04867058 -0.23841156 0.18302077 -0.04673476
-0.25720206 -0.053261373 -0.01203387 -0.02794345 0.097659774 0.13353223 0.18917046 0.1948892
0.34920985 0.32791755 0.115421906 0.11995318 0.12620462 0.080791086 0.20027307 0.29079297
0.050750382 0.16232267 0.30625036 0.103953555 0.31378925 0.22049966 0.015314122 0.051776815
-0.017505491 -0.14132966 -0.19763659 -0.2420505 0.058363292 -0.006971755 -0.12735221 0.07213332
0.0012556965 -0.16045125 0.012396048 -0.021693684 -0.14638405 0.18055828 0.3627091 0.30886304
0.3641602 0.3955993 0.38610765 0.23865932 0.3031161 0.22212954 -0.11913517 -0.20941487
-0.21383937 -0.16665386 -0.22824237 -0.2195928 -0.12242399 -0.15730003 -0.14371936 -0.3679868
-0.096554145 0.26832527 -0.5176074 -0.0027836675 0.47180992 -0.3193205 -0.009462754 0.38591564
0.15661635 0.20095621 0.16776152 0.27374166 0.27152526 0.15635902 0.15436552 0.1122987
0.07277094 -0.3539689 -0.36379272 -0.29533884 -0.40397578 -0.44723716 -0.21293296 -0.37147862
-0.22080784 -0.06889827 0.018381977 -0.027138634 -0.01165273 0.00673444 -0.12743852 0.097292714
-0.3455252 -0.22076587 0.15670119 -0.27254128 -0.3159146 -0.20252034 -0.27539212 -0.25830048
-0.1311941 -0.26792803 -0.28010982 -0.19077957 0.19562876 0.09313867 0.040048305 -0.074540384
-0.101960436 -0.14169651 -0.27483386 -0.26508936 -0.09051973 -0.010994756 0.05342236 0.122316465
0.09406093 0.23979597 0.229556 0.0748375 0.20132723 0.18144342 0.013830317 -0.11141342
-0.18274197 0.080998726 0.009116227 -0.15205418 0.3120723 0.21845293 -0.014325181 0.37880677
0.19037543 0.010284911 0.27645165 0.040137053 -0.18869127 0.17671272 -0.20543161 -0.36608395
0.14169885 -0.032792002 -0.22049436 0.11699294 -0.11728175 -0.35924494 0.028694166 -0.2394332
-0.36396578 -0.12242024 -0.06685374 -0.06522136 0.033139702 0.004511723 -0.02521356 0.18391132
0.3029627 0.1709632 0.056713063 0.14044769 0.12947385 0.2185367 0.34514895 0.3718646
0.19319242 0.32112503 0.31237853 0.2155752 0.383178 0.28080454 0.19235063 0.24283853
0.16629079 -0.024453465 -0.009616303 -0.047789432 0.04724683 0.009973541 -0.02210473 0.07697678

decoder.conv2.bias f4 [4]
00000000: 265b d63e 8692 243f 4592 803f 46e6 483f
0.41866416 0.6428608 1.0044638 0.7847637

decoder.conv3.weight f4 [1, 4, 3, 3]
00000000: 3ea7 89bd 7ec4 0dbe 5575 3cbe 41a3 693d
00000010: 9012 a3bd 08a0 39be e70d 39bd 1fce 26be
00000020: e1b2 64be 2ae1 26be 403d e5bd 5dd4 c33c
00000030: 95dc 85be cd5c 50bd 5e34 fc3d 8aa0 08be
00000040: 212e 0fbd 33a0 c43d 855f 9dba 5a02 cdbb
00000050: 67c9 afbd 1026 b4bd a1eb 21be 0a69 33be
00000060: 689c 36bd 0e62 833a 2679 b0ba 7a54 d63d
00000070: 4046 853e b777 433e b70a 8a3e bcbf 9d3d
00000080: d11c 993e 9f6f 163e 4203 823e fe16 133e
-0.06721352 -0.13844487 -0.18404134 0.057040457 -0.07962525 -0.18127453 -0.045179274 -0.16289566
-0.22333862 -0.16296831 -0.11193323 0.023904974 -0.26144853 -0.05086975 0.12314676 -0.13342491
-0.0349561 0.09600868 -0.0012006616 -0.006256384 -0.08583336 -0.08796322 -0.15812542 -0.17520538
-0.044582754 0.0010023729 -0.001346384 0.104653314 0.2603016 0.19088636 0.269613 0.07702586
0.29904798 0.14691018 0.2539311 0.1436424

mean_layer.weight f4 [20, 20]
00000000: f426 50bd 27c1 173e d0c9 8c3e 8471 a33d
00000010: ae1a aabd 8126 833e 95ba 04be 2faf c33b
00000020: 7bec bd3d 93fd b83e 0a0a 91bd f984 10bd
00000030: 3c27 833e 4911 4a3e 6fe0 1bbe 936b 0e3e
00000040: 1a20 1b3e 55b1 0c3e 3c8a 40be 1bac ce3c
00000050: b9d6 3bbd db99 91bd 5fdb fc3c 39de e7bc
00000060: 744e debc bd87 56bc 51ed cabc eee5 233d
00000070: ac0f e03c bb87 c13d 540d 06bd 9d02 803d
00000080: 3b03 bdbc 8b2e bb3d 024f 75bc 7074 d8bd
00000090: 1019 08be e4db a73c 7c00 223d b223 813d
000000a0: 6e53 fabd 4d58 8c3d 83c9 1a3d 9ed7 6d3d
000000b0: 422c 1b3e 6612 25be 7e63 c93c 9355 3bbe
000000c0: 88b9 42bd b063 963d a611 46be fe70 51be
000000d0: 687e 1abe bc81 2bbc 95db 88bd 85b5 943d
000000e0: 88a5 c9bd 1579 d5bd e5b7 adbd f43f 663e
000000f0: 28c2 4bbf d21c a63e 146f 9fbe 3c04 18bf
00000100: 8797 d33e 0c25 c3bd 2035 313f 7331 723e
00000110: 9e0d 5f3e 5a10 eb3d 1eb1 1bbe 6a61 143e
00000120: 0da6 833e 3fcf 88bc c08b 33bf 4500 a13d
00000130: 119c 7abc 7689 aa3e 758c e33e 670b d2be
00000140: b3c4 f3bd df57 7bbd a1c5 e83b 41c9 dc3c
00000150: 77d0 48be 8a9f 10be 2293 7e3d 3f40 863e
00000160: fc78 dabd 40a1 09bd a789 cdbd 9350 71be
00000170: 8f04 3b3d 6a5b ae3d 4142 c7bc 8256 c73d
00000180: b8b2 ddbd 15fd 913d 6b13 f1bd c00d debd
00000190: 428e b23c 1069 d73c febd c3bc 3fbc 9b3c
000001a0: ac42 523a 01d6 733a 12e1 693b 3bb9 dbbc
000001b0: 1c4f 30bc bfa5 04bd 45da 963c 6fe7 89bc
000001c0: 7016 4f3c d1df 04bd 3088 8d3c ecf3 4d3d
000001d0: 8bff 883d 4e34 6abc 487c b1bc 84fe 1abd
000001e0: 3766 83be b131 14be 6352 8abe 7200 5abd
000001f0: b7a8 ebbd 47c0 0e3f 8ffa 08bf b6fc f13c
00000200: 6626 e1be 3bdd d83e 1f3b 223e ec31 6ebe
00000210: 5beb 4ebf 958c b13d 575c 2bbd fa39 513e
00000220: 4055 093e d7f9 d53d 2d7f 053f 796c 88be
00000230: d496 563e be1e ab3d 73e1 1abe 7d0b 5dbe
00000240: 664b fabe 7b4a ab3e f5c6 cc3e 13be 593d
00000250: cce4 0bbf eada c7bd 43f4 24be fda2 bd3d
00000260: 87c5 15be afac 2abe 867d 45bf f61a 52be
00000270: 2f9f 0bbe 87b7 9d3d 6fd7 13bf 710e 823e
00000280: 9060 e73c 8b39 563d f9f8 f3bc ea50 fb3c
00000290: 2c2c 843c 0e7b 733c 1316 963c 9d73 ddbc
000002a0: 0abb afbc 518c 78bd 3752 b43c 72ae 16bd
000002b0: 80cc 1f3c 23da 8bbd 94fc 983c f8d0 b23d
000002c0: 08f2 d13d d152 f7bb cacc 17bd 6a40 6fbd
000002d0: 12bf 533e 01e2 72be 6029 10bd 075f af3d
000002e0: 1b87 073f e892 573e 1017 57be 5ed7 8a3d
000002f0: 8a7c 443e 085f afbe f9b9 2ebf 1c44 523e
00000300: 3786 4abe f9b1 993e c3a4 a5be ea27 fb3b
00000310: 82bd ec3d 7e08 323d 8848 5bbe 1992 68be
00000320: d4d3 1ebd 5ea4 12be ffe5 903e 44e8 ae3e
00000330: 7f32 ed3a 0e12 babd 7ba3 73bd 032b bd3d
00000340: 49cb 98be ce3d b53d 6feb ccbd 64b1 583e
00000350: abda f13d da58 70be b02a e6be f95e 033e
00000360: c08d eb3c 1e4c 85be 4310 933e a297 98bd
00000370: aa49 383e d395 13bf 368f 3dbe 65d0 60bf
00000380: 4a73 a23e 87b2 78bf 042e 2fbf 8a56 593e
00000390: d064 d6be ca12 c13e 57b8 ee3e 66d0 28be
000003a0: 1373 8c3e 4978 503e 8be6 30bf a487 ccbd
000003b0: 8e1b 533f 86f7 85be 31f1 8ebe d8ac d53e
000003c0: 6d42 cfbd 42ca 7c3e 7ada 8ebd 2e11 773e
000003d0: 5fb4 393b ffd4 a7bd 146d c8bd 3e67 f13d
000003e0: 3cae 733c 1162 36be 8831 3e3e bfa7 123e
000003f0: 0f6f eabd cea6 823e 2178 3abe 4e82 0e3d
-0.0508184 0.14819776 0.2749772 0.07980636 -0.0830587 0.25615314 -0.129618 0.0059718112
0.09273621 0.36130962 -0.07081993 -0.035283063 0.2561587 0.19733156 -0.15222333 0.13908224
0.15148965 0.13739522 -0.18802732 0.02522855 -0.045859072 -0.07109424 0.030866323 -0.028304206
-0.027137019 -0.013093886 -0.024771364 0.0400142 0.027351223 0.09449717 -0.032727554 0.062504984
-0.02307283 0.09139737 -0.01497245 -0.10569084 -0.1329081 0.020490594 0.039551243 0.063056365
-0.12222944 0.068527795 0.037789833 0.058066957 0.15153602 -0.161203 0.024583574 -0.18294363
-0.047540218 0.07343233 -0.1934267 -0.2045326 -0.15087283 -0.010467943 -0.06682507 0.072611846
-0.09846026 -0.10423485 -0.08482341 0.22485334 -0.79593134 0.32443863 -0.31139433 -0.5938146
0.41326544 -0.095285505 0.6922169 0.23651676 0.21782538 0.11477728 -0.15204284 0.14490286
0.25712624 -0.016700385 -0.70135117 0.078613795 -0.015295998 0.33308 0.44443098 -0.41024324
-0.11902752 -0.061363097 0.0071036373 0.026951434 -0.19610773 -0.1412336 0.062152036 0.2622089
-0.10667607 -0.033601046 -0.10036021 -0.23565893 0.045658644 0.085135296 -0.024323585 0.09733297
-0.108251035 0.0712835 -0.11771282 -0.10842466 0.02179635 0.026295215 -0.023894306 0.019010661
0.0008020799 0.00093016034 0.003568713 -0.026821723 -0.010761049 -0.03238463 0.018414626 -0.016833989
0.012639627 -0.03244001 0.017276853 0.05028145 0.06689366 -0.014294697 -0.021665707 -0.03784038
-0.2566392 -0.14472081 -0.2701598 -0.05322308 -0.11506789 0.5576214 -0.5350732 0.029539447
-0.43974608 0.42356285 0.15842865 -0.23261231 -0.80827874 0.08669392 -0.04183611 0.20432273
0.13411427 0.10448044 0.5214718 -0.26645258 0.20955974 0.08355473 -0.15125065 -0.21586414
-0.4888565 0.33455262 0.39995542 0.053159785 -0.5464599 -0.097585514 -0.16108803 0.09259603
-0.14626132 -0.16667436 -0.7714466 -0.20518097 -0.13634942 0.07701021 -0.577506 0.25401643
0.028244287 0.05230097 -0.029781805 0.030678231 0.016134344 0.0148608815 0.018321073 -0.027032668
-0.021451492 -0.06068069 0.02201186 -0.036787458 0.009753346 -0.06828716 0.018675126 0.08731264
0.10251242 -0.0075477143 -0.037060536 -0.05841104 0.20678356 -0.23719026 -0.03519571 0.08563047
0.5294053 0.21052134 -0.21004891 0.06779359 0.19188133 -0.3425219 -0.6825252 0.20533794
-0.19777761 0.30018595 -0.32352266 0.0076646702 0.11559583 0.04346513 -0.21414387 -0.22711982
-0.038776234 -0.14320514 0.28300473 0.3416158 0.0018096714 -0.09085475 -0.05948208 0.092367195
-0.29842594 0.08849679 -0.10005843 0.21161419 0.11809286 -0.23471394 -0.44954443 0.12829198
0.028754115 -0.26034635 0.28723344 -0.07450797 0.1799685 -0.5765049 -0.18511662 -0.87817985
0.31728584 -0.9714741 -0.6842959 0.21224418 -0.4187379 0.37709647 0.46625015 -0.16485748
0.27431545 0.20358385 -0.6910178 -0.09986809 0.8246392 -0.26165408 -0.2791839 0.41733432
-0.101200916 0.2468653 -0.06975265 0.24127647 0.002833627 -0.08194923 -0.0978643 0.1178727
0.014873084 -0.17810847 0.18573582 0.14321803 -0.11446964 0.25517887 -0.18209888 0.034792237

mean_layer.bias f4 [20]
00000000: ad30 e13d d019 eabb 612f 7cbd 238f 0c3f
00000010: eb73 223f 94e0 0fbd b714 28b9 193f e63e
00000020: a06e 9fbc 9636 b9be e63e e6bd 1e26 7f3e
00000030: ac28 743c 4281 b33c 0888 78bd 2d26 8d3d
00000040: 9e62 3fbe b08c b83d ebb1 a73d 3639 4cbe
0.10995612 -0.0071441904 -0.06156862 0.5490591 0.63458127 -0.035126284 -0.00016029445 0.44970015
-0.01946193 -0.36174458 -0.11242466 0.24916884 0.014902275 0.02191222 -0.060676605 0.06892047
-0.18689963 0.09011209 0.08188232 -0.19943699
